checkpoints/RNN/RNN.pth (torch, 199067 bytes, 20 tensors)

LSTM.weight_ih_l0 f4 [160, 16]
0	0xbd98a098	-0.07452506
1	0x3df4fd10	0.1196233
2	0xbd866205	-0.065616645
3	0x3e076c7a	0.13224974
4	0xbd154178	-0.03643939
5	0xbdcabbc9	-0.098990984
6	0xbdd45867	-0.10368424
7	0xbe1ae4f7	-0.15126406
8	0x3d78418b	0.06060938
9	0xbcb9c2dd	-0.022675926
10	0x3e1ad75a	0.15121213
11	0xbd59a5ad	-0.053136516
12	0xbcce9d95	-0.025221625
13	0x3e009429	0.12556519
14	0xbd22b6e8	-0.039725214
15	0x3deba027	0.11505156
16	0xbc94caed	-0.018163169
17	0xb984e656	-0.00025348616
18	0xbd1cf109	-0.038315807
19	0x3e033754	0.12814075
20	0xbd03bb2b	-0.03216092
21	0xbe003259	-0.12519206
22	0xbe259a89	-0.16172232
23	0x3dafbb6e	0.08580671
24	0x3e0d3c42	0.13792518
25	0xbe12a7cf	-0.14321826
26	0x3e16fe86	0.1474553
27	0x3da79ab0	0.08183801
28	0x3daae8d2	0.08345188
29	0xbb878a9b	-0.004136396
30	0x3dad8c64	0.08474043
31	0x3dfc75bf	0.12327146
32	0xbe2174e5	-0.15767248
33	0xbe1f4881	-0.15555002
34	0xbcbfe358	-0.023423836
35	0x3daab4b8	0.083352506
36	0x3d20ee40	0.039289713
37	0xbd5afb10	-0.053462088
38	0x3d7cb908	0.061699897
39	0x3d836e38	0.06417507
40	0xbd52830a	-0.0513945
41	0xbdb2e7ee	-0.08735643
42	0x3af2c180	0.0018520802
43	0xbbe77460	-0.0070634335
44	0xbd4c6940	-0.04990506
45	0xbc273230	-0.010204837
46	0x3e0e4179	0.13892163
47	0x3ddf3f66	0.10900764
48	0xbd3ea3ad	-0.046542812
49	0xbdfd488f	-0.12367355
50	0xbd60722a	-0.054796375
51	0xbd2702d5	-0.040774185
52	0xbe2277fc	-0.15866083
53	0x3d84a24a	0.06476267
54	0xbe0f12c0	-0.13971996
55	0xbd9f3a70	-0.07774818
56	0xbe39554f	-0.18098949
57	0xbdeda291	-0.11603273
58	0xbdd9f6ec	-0.106428
59	0xbb3545c6	-0.0027659996
60	0xbdc32627	-0.09528761
61	0x3ce9c8df	0.028538166
62	0xbd1b378a	-0.037894763
63	0xbc430e52	-0.01190527
64	0xbd968324	-0.07349232
65	0xbca32332	-0.019914243
66	0xbe0bedc9	-0.13664927
67	0xbdd43888	-0.10362345
68	0xbe26f461	-0.1630416
69	0x3d9dd03d	0.07705734
70	0x3d324f4a	0.043532647
71	0x3d870b1a	0.06593914
72	0xbd159dd2	-0.036527462
73	0x3df202f5	0.1181697
74	0xbdaa6054	-0.083191544
75	0x3d5b3721	0.053519372
76	0x3dfb9eba	0.12286134
77	0xbdb678cf	-0.08909761
78	0x3d982709	0.0742932
79	0xbc2dbcdb	-0.010604109
80	0x3b7890fe	0.003792822
81	0xbe5f1cb8	-0.21788299
82	0xbc62874b	-0.013826202
83	0xbd0410d0	-0.032242596
84	0xbe147a05	-0.14499672
85	0x3d67c706	0.056586288
86	0xbe31bfa6	-0.17358264
87	0xbdd13195	-0.10214535
88	0xbe222948	-0.1583606
89	0x3ce55d0a	0.027998466
90	0xbd33c033	-0.043884467
91	0x3d81956f	0.0632733
92	0x3d82d4ef	0.0638827
93	0x3d012533	0.031529617
94	0xbd158932	-0.036507793
95	0xbcccc84c	-0.024997853
96	0xbd26f9ad	-0.040765453
97	0x3e1ad903	0.15121846
98	0x3dbb3859	0.09141607
99	0x3cfd3f27	0.030913902
100	0xbc7d6611	-0.015466229
101	0xbd4919ec	-0.049096987
102	0xbd973285	-0.07382683
103	0xbe143d71	-0.14476563
104	0x3d10b6f7	0.03533074
105	0x3d4cae89	0.049971137
106	0x3e25a382	0.16175655
107	0xbe044168	-0.12915576
108	0xbdd2b310	-0.1028806
109	0x3d80d14c	0.0628992
110	0xbe57809e	-0.21045157
111	0xbe024063	-0.12719874
112	0xbd83d72b	-0.064375244
113	0x3d462b64	0.048381224
114	0x3c187600	0.009305477
115	0x3dd383fe	0.1032791
116	0xbe11a8e4	-0.14224583
117	0x3defca4a	0.117085055
118	0xbdd90ba1	-0.10597921
119	0x3e0c0d61	0.13676979
120	0xbe15a7e6	-0.1461483
121	0x3dc5c332	0.09656371
122	0x3e19b981	0.1501217
123	0x3d570274	0.052492574
124	0x3c14eaa0	0.009089142
125	0xbdc77d8a	-0.097407416
126	0xbc3afa70	-0.011412248
127	0x3e1a7675	0.1508425
128	0xbd32fa22	-0.043695576
129	0x3e157e43	0.14598946
130	0x3db3cc7a	0.08779235
131	0xbd895517	-0.06705683
132	0x3de38f0f	0.11111271
133	0x3d9b3ec7	0.07580333
134	0x3d353c73	0.044247102
135	0x3e1fe614	0.15615112
136	0xbd97807a	-0.07397552
137	0x3da6c8e9	0.08143789
138	0x3dd51423	0.104042314
139	0x3d15ca0b	0.036569636
140	0x3e3d8035	0.18505938
141	0xbc6b31a5	-0.014355098
142	0xbd3c2e10	-0.045942366
143	0x3cc7d27d	0.02439236
144	0xbd539bb2	-0.051662154
145	0xbe5b6f96	-0.21429285
146	0x3e217515	0.1576732
147	0x3da4d4cf	0.080484025
148	0xbd91268f	-0.070874326
149	0x3df89615	0.12138001
150	0x3cdc7848	0.026912823
151	0x3e19187c	0.14950746
152	0x3e561891	0.20907809
153	0x3de93050	0.11386168
154	0x3d16fb56	0.036860786
155	0x3cf2276b	0.029559812
156	0x3e1d6be2	0.15373185
157	0x3e333b90	0.1750319
158	0xbd1f814d	-0.03894167
159	0x3cdc4aeb	0.026891192
160	0xbe1f806b	-0.15576331
161	0xbdb57727	-0.08860617
162	0xbd7804f9	-0.060551617
163	0x3e087126	0.13324413
164	0xbe20844b	-0.15675466
165	0xbe1c8b45	-0.15287502
166	0x3c099fdd	0.008399931
167	0x3e084a9f	0.13309716
168	0x3cb46529	0.022020893
169	0xbd6cfa61	-0.057855967
170	0xbd1cea07	-0.038309123
171	0x3dde2b43	0.10848095
172	0x3dd97afa	0.10619159
173	0x3e13e352	0.14442185
174	0x3e0a2593	0.13490896
175	0x3d4e5a15	0.050378878
176	0x3c9aeefc	0.018912785
177	0x3dca80a3	0.09887817
178	0xbd2dd80f	-0.042442378
179	0xbe685b7c	-0.22691149
180	0xbdf9bbb6	-0.12194006
181	0xbdb2b0e4	-0.087251455
182	0xbdc53964	-0.09630087
183	0xbc94997c	-0.018139593
184	0xbce98609	-0.028506296
185	0xbe43da1a	-0.19126168
186	0x3d87af40	0.06625223
187	0x3c69fb57	0.0142811155
188	0xbd94bc72	-0.072625056
189	0xbdb7d57b	-0.08976265
190	0xbe716791	-0.23574664
191	0x3acf6b96	0.001582491
192	0xbc770c89	-0.015078672
193	0x3d39b3ba	0.045337416
194	0xbd87796d	-0.06614957
195	0x3d4831e8	0.04887572
196	0x3d5f046c	0.054447576
197	0xbdf2409d	-0.1182873
198	0xbcd33492	-0.025781903
199	0xbb96150f	-0.004580147
200	0x3d84bc25	0.06481198
201	0x3d10c5cb	0.03534488
202	0xbd02223e	-0.031770937
203	0x3d5b20f0	0.05349821
204	0x3dbb79c2	0.09154083
205	0xbde5996e	-0.11210905
206	0xbdfefed6	-0.1245095
207	0xbcf679da	-0.0300874
208	0x3b2d1695	0.0026411165
209	0x3d90a913	0.07063498
210	0xbdd4cae9	-0.103902645
211	0x3b3d3e6e	0.0028876322
212	0x3e362e5c	0.17791122
213	0x3dc937f6	0.09825127
214	0xbde20cf5	-0.110376276
215	0xbdbcb2bc	-0.092137784
216	0xbdbcd045	-0.09219412
217	0xbd5322d8	-0.0515469
218	0x3e67ea52	0.2264798
219	0xbe05689a	-0.13028184
220	0x3e1bdb4e	0.15220377
221	0xbd1affd1	-0.03784162
222	0x3e2e38d1	0.17013861
223	0x3e5cd944	0.21567255
224	0xbe2c4f19	-0.16827048
225	0xbd953264	-0.07285002
226	0x3c18bcb4	0.009322334
227	0xbdc28e43	-0.094997905
228	0xbce4800d	-0.02789309
229	0xbd9ac85a	-0.07557745
230	0x3df50160	0.11963153
231	0xbe1cd999	-0.15317382
232	0x3da54492	0.080697194
233	0xbd3e7b77	-0.046504464
234	0x3d83d692	0.064374104
235	0xbda587dc	-0.08082554
236	0xbe1bb2bd	-0.15204902
237	0x3dc69470	0.09696281
238	0x3dc59813	0.096481465
239	0x3d991c78	0.07476133
240	0x3b7aa5f0	0.003824588
241	0xbd2029e0	-0.039102435
242	0x3d04b7bf	0.032401796
243	0x3e4babc9	0.1988975
244	0x3d4b731e	0.04967033
245	0xbe1111b0	-0.14166903
246	0x3ac40e74	0.0014957921
247	0x3a170c99	0.000576207
248	0x3e0171de	0.12641093
249	0x3e10af22	0.14129308
250	0x3d856efa	0.06515308
251	0xbe326bd2	-0.17423943
252	0xbe7592f0	-0.23981833
253	0x3c54165b	0.012944783
254	0x3e2c4932	0.16824797
255	0x3dcfc24d	0.10144482

LSTM.weight_hh_l0 f4 [160, 40]
0	0x3deb6757	0.1149432
1	0x3e16e26c	0.1473481
2	0xbdd94e1a	-0.106106
3	0x3ddb3648	0.10703713
4	0x3d312fca	0.043258466
5	0x3cd2fb9e	0.025754746
6	0xbd9e8660	-0.07740474
7	0x3c3217e0	0.01086995
8	0xbe00a3ee	-0.12562534
9	0x3d90b278	0.0706529
10	0x3d5c55e4	0.05379285
11	0xbdcf230a	-0.10114105
12	0x3d5055fc	0.05086325
13	0xbdb03efb	-0.086057626
14	0x3cf58c60	0.029974163
15	0x3dff31e8	0.12460691
16	0x3e14cce4	0.14531285
17	0x3dc857d5	0.09782378
18	0xbde29814	-0.11064163
19	0xbd964cf7	-0.07338899
20	0x3d65b0e5	0.056076903
21	0xbd899b5e	-0.06719087
22	0x3c4180ce	0.011810495
23	0xbc1a0fbf	-0.009403168
24	0x3d96bf26	0.073606774
25	0xbbf8aba0	-0.0075888187
26	0x3dfa709e	0.12228511
27	0x3ce27809	0.027645128
28	0xbd86c30c	-0.06580171
29	0xbc679637	-0.014134935
30	0x3c47ac1c	0.01218703
31	0x3dd33aaa	0.10313924
32	0xbd717f23	-0.058959138
33	0xbdb1491e	-0.08656524
34	0xbe0ad96f	-0.13559507
35	0xbe201b2f	-0.1563537
36	0x3e06cecc	0.13164824
37	0x3e06baea	0.1315724
38	0xbd598c64	-0.053112403
39	0xbdbdb856	-0.09263675
40	0x3dacd4b0	0.084390044
41	0xba877b1e	-0.0010336374
42	0x3dc2e7bc	0.09516856
43	0xbdbd605b	-0.09246894
44	0x3e182567	0.14858018
45	0xbe031b3c	-0.12803358
46	0xbd734acf	-0.059397515
47	0xbd888f32	-0.06667937
48	0x3cea6ac5	0.028615365
49	0x3d5b0c28	0.05347839
50	0x3e108705	0.14114006
51	0xbd1d5eef	-0.038420614
52	0xbd47a97b	-0.048745614
53	0xbe24b3f5	-0.16084273
54	0x3e050dae	0.129935
55	0x3dd17cab	0.10228857
56	0xbd22204b	-0.03958158
57	0xbdcfc83d	-0.10145614
58	0x3dab811f	0.08374237
59	0x3d760648	0.060064584
60	0x3e131607	0.14363872
61	0x3d3ab93f	0.04558682
62	0x3d4d7392	0.050159045
63	0x3b482175	0.003053752
64	0x3d69679c	0.056983575
65	0xbde9355a	-0.11387129
66	0x3bcedc80	0.0063129067
67	0x3d684352	0.056704827
68	0x3d547211	0.051866595
69	0xbb561257	-0.003266474
70	0xbd732489	-0.059361015
71	0x3e0a5ead	0.13512678
72	0x3d6e1ebe	0.058134787
73	0x3d504920	0.050850987
74	0x3d35ad14	0.044354513
75	0x3c39f244	0.0113492645
76	0x3e0c21b7	0.13684736
77	0xbdbae0b8	-0.09124893
78	0xbdc673a9	-0.09690029
79	0xbd4998a2	-0.049217828
80	0x3d95c8ae	0.07313667
81	0x3d923404	0.071388274
82	0x3dc83c1a	0.097770885
83	0xbddbcc14	-0.10732284
84	0xbd0ad0d4	-0.03389056
85	0x3e06b30b	0.13154237
86	0x3e185a35	0.14878161
87	0x3d623b0c	0.055232093
88	0x3c1c17f0	0.0095271915
89	0x3db1df20	0.08685136
90	0xbde1ddc6	-0.11028628
91	0x3c970538	0.018435106
92	0xbdc6ca7c	-0.097065896
93	0x3d9c933e	0.07645272
94	0xbd49936a	-0.04921285
95	0xbd76a8f8	-0.060219735
96	0x3db26a1e	0.087116465
97	0x3dd6f26e	0.104954585
98	0x3dfb342e	0.12265812
99	0x3e0afddb	0.135734
100	0xbdb38275	-0.08765117
101	0xbd40fbc0	-0.047115088
102	0x3e042321	0.12904026
103	0xbe1938ab	-0.14963023
104	0x3dd85d16	0.1056463
105	0xbc07ec70	-0.008296117
106	0xbde99869	-0.11406023
107	0x3dec5d32	0.11541213
108	0xbe04c7a0	-0.12966776
109	0x3deeb446	0.11655478
110	0xbc022cb0	-0.007945225
111	0x3d3be414	0.04587181
112	0x3d78a458	0.060703605
113	0xbd815947	-0.063158564
114	0xbcf36ac0	-0.029713988
115	0x3d0fcee0	0.0351094
116	0xbdcc9c6a	-0.09990771
117	0xbb5c8500	-0.003364861
118	0x3dfa1cf6	0.12212555
119	0x3bebfde0	0.007201895
120	0x3c904f40	0.017615914
121	0xbe1e509c	-0.15460438
122	0x3cf0ee34	0.02941046
123	0xbd2cedab	-0.042218845
124	0xbde8b1e9	-0.11362059
125	0xbd0aa635	-0.033849914
126	0xbdbe309f	-0.092866175
127	0xbe1354f5	-0.14387877
128	0xbe1c5296	-0.15265879
129	0x3dc2805c	0.09497139
130	0x3dea9b66	0.11455421
131	0x3e017a43	0.12644295
132	0x3d917b48	0.07103592
133	0x3d82d5e7	0.06388455
134	0xbd9ae8df	-0.07563948
135	0xbbd1bba6	-0.0064005433
136	0xbd886ddc	-0.06661579
137	0xbd177d02	-0.03698445
138	0xbd17153b	-0.03688548
139	0xbdaab5a5	-0.08335427
140	0xbe0ba72a	-0.13637987
141	0x3df06561	0.117380865
142	0xbda56b0d	-0.08077059
143	0xbdf023c0	-0.11725569
144	0xbdbead28	-0.09310371
145	0xbdd0ab8c	-0.1018897
146	0xbcdba640	-0.026812673
147	0x3d95addf	0.07308554
148	0x3d2941e6	0.04132261
149	0xbd481c91	-0.048855368
150	0x3d887d9f	0.06664585
151	0x3a10fc4a	0.0005530758
152	0xbdd64a8d	-0.10463438
153	0x3cd06e78	0.0254433
154	0xbcfea8e6	-0.031086396
155	0xbbde8f14	-0.0067919586
156	0xbd4df600	-0.050283432
157	0xbe20d5bd	-0.15706535
158	0x3daad282	0.083409324
159	0x3dfdc7c1	0.12391616
160	0x3ca63b7d	0.020292038
161	0xbe4d7623	-0.20064597
162	0xbc70c917	-0.014696381
163	0xbdef7f2f	-0.1169418
164	0x3dae5327	0.08511954
165	0x3c84f939	0.01623212
166	0x3d94b325	0.072607316
167	0x3d37fa43	0.044916403
168	0xbe078a08	-0.13236248
169	0x3e179435	0.1480263
170	0x3c876eb4	0.01653228
171	0x3cde67de	0.027149137
172	0xbe10b720	-0.14132357
173	0xbe100a7c	-0.140665
174	0x3e306591	0.17226245
175	0x387e05eb	6.056383e-05
176	0x3ddd7e63	0.10815122
177	0x3c8b356b	0.016993245
178	0x3aa923c6	0.0012904338
179	0xbe33f7ca	-0.17574993
180	0x3d458847	0.048225667
181	0x3ca564aa	0.020189602
182	0xbe161ae1	-0.14658691
183	0xbd9ffb4b	-0.07811602
184	0xbdd07f4d	-0.10180531
185	0x3e0dab73	0.13834934
186	0x3e120017	0.14257847
187	0x3cd15caa	0.025556881
188	0xbd547869	-0.051872645
189	0x3e205fde	0.1566157
190	0x3c9438d7	0.01809351
191	0xbde0fbdc	-0.10985538
192	0x3bdd23ba	0.0067486437
193	0x3c29a9df	0.010355442
194	0xbbc004b9	-0.005859938
195	0x3ca79562	0.020456973
196	0x3d826f4d	0.06368885
197	0x3cf38c06	0.029729854
198	0x3e1c9014	0.15289336
199	0xbd398090	-0.045288622
200	0xbd5f2c6f	-0.054485735
201	0x3d839601	0.06425095
202	0x3d8b0e72	0.067898646
203	0x3d334275	0.04376455
204	0xbe5f668e	-0.21816465
205	0xbc57c33b	-0.013169105
206	0xbdde98cd	-0.10868988
207	0xbc986128	-0.018601015
208	0xbd3534fd	-0.044239987
209	0xbcdb0e0c	-0.026740097
210	0xbde00c9c	-0.10939905
211	0xbd8861d9	-0.06659288
212	0x3c443a60	0.011976808
213	0xbc752a65	-0.014963721
214	0x3df8a43d	0.12140701
215	0x3e3c16b3	0.18368034
216	0xbcbaed50	-0.022818238
217	0xbdee0ef5	-0.116239466
218	0x3d98ce47	0.07461219
219	0xbe023c19	-0.12718238
220	0xbd10a1d9	-0.0353106
221	0x3d80555d	0.06266282
222	0x3df3dee1	0.11907745
223	0xbe3565fe	-0.17714688
224	0xbdfaa8b3	-0.12239208
225	0xbc9d71b8	-0.019219264
226	0xbe1856c7	-0.14876853
227	0x3daf9cc4	0.085748225
228	0x3cc96d76	0.024588328
229	0xbe0a7ee6	-0.1352497
230	0xbddc25a0	-0.10749364
231	0x3d345f28	0.04403606
232	0xbe5c8c1c	-0.21537822
233	0x3e00c017	0.12573276
234	0x3e149eeb	0.14513747
235	0x3dc37651	0.095440514
236	0x3daa89bc	0.08327052
237	0x3a091d4c	0.0005230501
238	0x3d1a9600	0.037740707
239	0xbd31b51d	-0.043385614
240	0x3e345405	0.17610176
241	0xbc8384bb	-0.016054502
242	0xbdcb8dd7	-0.09939163
243	0x3dee323a	0.11630674
244	0xbd216c70	-0.039410055
245	0xbcdeb889	-0.027187603
246	0x3e071c6f	0.1319444
247	0x3d5a451f	0.053288575
248	0xbe3a5113	-0.1819499
249	0xbd3e62cd	-0.046480943
250	0xbcf824a8	-0.030290917
251	0xbd92964e	-0.071575746
252	0x3e070406	0.13185129
253	0xbe16de67	-0.14733277
254	0x3c911a0b	0.017712614
255	0xbd336ceb	-0.043805044

LSTM.bias_ih_l0 f4 [160]
0	0x3dc26b4b	0.09493121
1	0xbdb3e688	-0.08784205
2	0x3d935dbc	0.07195613
3	0x3d9936a9	0.07481129
4	0x3e200e2c	0.15630406
5	0x3d72838f	0.059207495
6	0x3da5f40c	0.08103189
7	0x3c918558	0.017763779
8	0xbd04dc5c	-0.032436714
9	0xbe3ffbda	-0.18748417
10	0x3dc09d70	0.09405029
11	0x3d64f11d	0.055894006
12	0x3e156479	0.14589109
13	0x3d64712f	0.055772003
14	0xbe0cb332	-0.13740233
15	0x3dc2fd03	0.095209144
16	0xbdd0a6fe	-0.10188101
17	0x3e1a07a3	0.15041976
18	0x3d99393d	0.074816205
19	0xbd54d52f	-0.05196112
20	0x3dc107a9	0.09425289
21	0xbe2b896f	-0.16751646
22	0xbc66251e	-0.014046935
23	0xbde74476	-0.11292355
24	0x3e3dbde5	0.1852947
25	0x3bfd2db3	0.007726395
26	0xbdb8f5e5	-0.09031276
27	0xbdf65f8f	-0.12029945
28	0x3e54b23d	0.20771118
29	0xbda27ca8	-0.079339325
30	0xbd9d1eaa	-0.07671864
31	0x3c278a41	0.010225833
32	0xbd611df6	-0.054960214
33	0xbdc2babb	-0.09508272
34	0x3b3ce826	0.0028824895
35	0xbddde529	-0.108347245
36	0x3da9b09b	0.08285638
37	0xbe0d1561	-0.13777687
38	0xbd4a785d	-0.049431194
39	0xbd3f327a	-0.046678998
40	0xbdf40b44	-0.11916211
41	0x3d1211b7	0.035661425
42	0xbe14809e	-0.14502189
43	0x3ce6cb93	0.028173244
44	0x3ddf42db	0.109014235
45	0xbdc4d400	-0.09610748
46	0xbde85e94	-0.11346164
47	0xbe1fd1f0	-0.15607429
48	0x3c375f6f	0.011192187
49	0x3d9b18a5	0.0757306
50	0x3e06bffa	0.13159171
51	0xbd407b00	-0.046992302
52	0x3dcbeaf3	0.099569224
53	0xbc044cb6	-0.00807493
54	0x3d0caa4c	0.034342095
55	0x3dad3366	0.08457069
56	0x3d78137c	0.060565457
57	0x3c8e8bc4	0.01740063
58	0x3c4911b3	0.012272286
59	0x3e1628cf	0.14664005
60	0xbd07f9ba	-0.033197142
61	0xbdfd699f	-0.12373661
62	0xbcf90ace	-0.03040066
63	0xbe297a28	-0.16550505
64	0xbd900c1f	-0.07033562
65	0xbe1f0b1b	-0.1553158
66	0xbd408400	-0.047000885
67	0xbc15720c	-0.009121429
68	0x3cb2e3ba	0.021837104
69	0x3dc9af75	0.09847919
70	0x3baeb534	0.0053316597
71	0xbc2fe07b	-0.010734673
72	0x3cd1af2f	0.02559623
73	0xbe16d3e1	-0.14729263
74	0x3d09b44b	0.033619206
75	0xbdb7d48f	-0.08976089
76	0x3d8b5cc4	0.06804803
77	0xbe16f534	-0.14741975
78	0xbc936d9f	-0.017996607
79	0xbdd07c7b	-0.10179993
80	0xbc8869a9	-0.016651945
81	0x3cc18a59	0.02362554
82	0x3dacd9b2	0.084399596
83	0xbddd09fa	-0.107929185
84	0x3cfe5511	0.031046422
85	0x3d9af0c8	0.07565457
86	0xbd82099a	-0.063494876
87	0x3cdd7950	0.027035385
88	0xbb5e5bc7	-0.0033929215
89	0xbd774ac5	-0.06037404
90	0x3c963ee8	0.018340543
91	0xbc57cf6a	-0.01317201
92	0x3bde2efc	0.0067805033
93	0xbd6dc418	-0.058048338
94	0xbdff33c9	-0.12461049
95	0xbc1f900b	-0.009738932
96	0xbbfc6660	-0.0077026337
97	0xbbf5ad39	-0.0074974564
98	0xbd21b9ce	-0.039483838
99	0xbd147aa2	-0.036249764
100	0x3e1e47db	0.15457098
101	0xbdfb40de	-0.12268232
102	0xbd953841	-0.0728612
103	0x3d7d59bf	0.061853167
104	0x3dcdd2de	0.10049985
105	0xbd97b125	-0.074068345
106	0x3d9aaed8	0.0755288
107	0xbdf948b4	-0.1217207
108	0x3e180047	0.14843856
109	0xbc2201b6	-0.009888103
110	0x3df2ff15	0.11865059
111	0xbcb106b5	-0.021609643
112	0xbe177a60	-0.14792776
113	0xbdee6a76	-0.116413996
114	0x3c81ec89	0.015859859
115	0xbc9d9dd8	-0.019240305
116	0x3de3a7f2	0.111160174
117	0x3cd6f4aa	0.026239712
118	0xbdd4df46	-0.103941485
119	0x3dd9b151	0.106295235
120	0xbdf31ffe	-0.118713364
121	0xbdaedf4d	-0.08538685
122	0xbe05a1b4	-0.13049966
123	0xbd889625	-0.06669263
124	0xbd4ab0b9	-0.049484942
125	0xbd9c7b27	-0.07640677
126	0x3dff2a1f	0.12459206
127	0x3d1feb3e	0.039042704
128	0xbde99500	-0.114053726
129	0x3d0a750e	0.03380304
130	0xbdebf23b	-0.11520811
131	0xbddde840	-0.10835314
132	0x3d7c6da4	0.061628
133	0x3db8e6c7	0.09028392
134	0xbda67c02	-0.08129121
135	0x3d2cdb07	0.04220107
136	0xbd715e15	-0.058927614
137	0xbc51472a	-0.0127733145
138	0xbdab81b8	-0.08374351
139	0xbd32b1ae	-0.04362648
140	0x3d7b8430	0.06140536
141	0xbd056c64	-0.032574072
142	0xbd07bb14	-0.033137396
143	0xbdb83bf9	-0.08995814
144	0xbddb73a8	-0.10715419
145	0x3dae036b	0.08496746
146	0x3d00a358	0.031405777
147	0xbdc4d0ed	-0.09610162
148	0xbd38367c	-0.044973835
149	0x3d12f9b9	0.035882685
150	0x3e395cb3	0.18101768
151	0x3d1409e9	0.036142264
152	0x3dd24eca	0.10268934
153	0xbdcd84a6	-0.10035066
154	0x3e14cdb7	0.14531599
155	0x3e3c330e	0.18378851
156	0xbe04fb41	-0.12986471
157	0x3d9223a6	0.07135706
158	0x3e1e8547	0.15480529
159	0x3d60e03b	0.054901343

LSTM.bias_hh_l0 f4 [160]
0	0x3bd03990	0.0063545182
1	0x3d8f35ed	0.069927074
2	0xbdc946fe	-0.09827994
3	0xbdeab3c7	-0.11460071
4	0x3d58ec32	0.05295963
5	0xbb397cc4	-0.0028303126
6	0xbe25b05c	-0.16180557
7	0x3db1999e	0.08671878
8	0xbc53020d	-0.012878907
9	0x3cff60bb	0.031174054
10	0xbd5c7373	-0.05382104
11	0x3d47f622	0.048818715
12	0x3c3d2086	0.011543399
13	0x3c93fe3c	0.018065564
14	0xbc8d0c98	-0.01721792
15	0xbe237290	-0.15961671
16	0x3e1c4227	0.1525961
17	0x3db17aa8	0.08665973
18	0x3cfa39dc	0.030545168
19	0x3d81b96c	0.063341945
20	0x3e1b7136	0.15179905
21	0xbbc3160c	-0.005953556
22	0xbdc95a5c	-0.09831688
23	0x3dec06ef	0.1152476
24	0x3de94693	0.11390414
25	0xbd959679	-0.07304091
26	0x3e0011c7	0.12506782
27	0x3d504ff9	0.050857518
28	0xbb70fd04	-0.0036771903
29	0xbdf2a6eb	-0.11848243
30	0xbd8cc2f0	-0.06873119
31	0xbdbd96e8	-0.09257299
32	0xbd299910	-0.041405737
33	0xbdc3d01f	-0.0956118
34	0x3da6d3bf	0.08145856
35	0x3da7ff44	0.08202985
36	0xbd1e346b	-0.03862421
37	0x3c922b1d	0.017842824
38	0x3d8903d5	0.06690184
39	0xbda9d01f	-0.08291649
40	0x3d8bd3f0	0.06827533
41	0xbdcf4ef7	-0.10122483
42	0xbc704330	-0.014664456
43	0xbd17f459	-0.037098262
44	0x3e0fb0b5	0.14032252
45	0x3deb3e27	0.11486464
46	0xbdad3f68	-0.084593594
47	0x3ddd8bba	0.10817666
48	0xbcaa7976	-0.02080987
49	0x3dc58c07	0.09645849
50	0x3ddc7184	0.10763839
51	0xbd27e45a	-0.040989257
52	0xbbba533f	-0.0056861932
53	0xbd504401	-0.050846104
54	0xbdcb4c21	-0.0992663
55	0x3d9de7ea	0.0771025
56	0xbe034537	-0.12819372
57	0x3dd8185b	0.105515204
58	0xbdc4a3cd	-0.09601555
59	0xbdce212b	-0.1006492
60	0x3e18b7e7	0.14913903
61	0xbe13a11d	-0.14416929
62	0xbda814af	-0.0820707
63	0x3de986dc	0.114026755
64	0xbd01276b	-0.031531733
65	0x3e0f9f0d	0.14025517
66	0xbce11b90	-0.027478963
67	0x3cc2bcf2	0.023771737
68	0x3c6052dc	0.01369163
69	0xbd982f61	-0.07430912
70	0x3e1a8b36	0.15092167
71	0x3dd95a9d	0.10612986
72	0xbd142eaa	-0.036177315
73	0x3d1e5bf1	0.0386619
74	0x3e27709f	0.16351555
75	0x3d30996b	0.04311506
76	0xbde67e5c	-0.1125457
77	0xbce9fa23	-0.028561657
78	0xbe135d91	-0.14391162
79	0xbd01d4cd	-0.031697083
80	0xbd4a85a7	-0.049443867
81	0x3ca4b45f	0.020105539
82	0xbceaac48	-0.028646603
83	0x3d355b06	0.04427626
84	0xbd76b9b3	-0.06023569
85	0x3d3e7948	0.04650238
86	0xbddfa384	-0.1091986
87	0xbe03ce51	-0.12871672
88	0xbd8dc21c	-0.06921789
89	0x3e3e6095	0.1859153
90	0x3e026cb1	0.12736775
91	0xbe04944b	-0.12947194
92	0x3d9ca7aa	0.07649167
93	0xbc184556	-0.009293875
94	0x3ddaeaab	0.106892906
95	0x3db2104b	0.08694514
96	0xbe1cd7b5	-0.1531666
97	0x3d8e68eb	0.06953605
98	0x3e20695a	0.15665188
99	0x3da1223d	0.078678586
100	0x3bcd9ceb	0.0062748096
101	0xbddafafb	-0.10692402
102	0xbddc0285	-0.10742668
103	0x3db25165	0.08706931
104	0xbd4417ab	-0.047874134
105	0x3e0f6945	0.14005001
106	0x3cdd2f60	0.02700013
107	0x3d5ad09b	0.053421598
108	0x3da9d470	0.08292472
109	0xbda33b47	-0.07970291
110	0x3c093fea	0.008377055
111	0xbd547a04	-0.051874176
112	0xbd89d70c	-0.0673047
113	0xbdbc6307	-0.091985755
114	0xbddc4837	-0.107559614
115	0xbe19f92b	-0.15036456
116	0xba888d00	-0.0010417998
117	0xbc5559ee	-0.013021929
118	0x3dd9c63a	0.10633512
119	0xbe06253c	-0.13100141
120	0x3e0176f9	0.1264304
121	0xbd647bb1	-0.055782024
122	0xbdfb84f0	-0.12281215
123	0xbe02f2ea	-0.12787977
124	0x3d659919	0.05605421
125	0xbc9312d5	-0.017953316
126	0xbe15aec0	-0.14617443
127	0x3db99c8c	0.09063062
128	0xbdaa0400	-0.08301544
129	0xbbfec49c	-0.0077749025
130	0xbc884ecc	-0.016639136
131	0x3ccfc60e	0.025362995
132	0x3cdc38a3	0.026882475
133	0xbdb3f26c	-0.08786473
134	0x3c3f0564	0.011659
135	0x3e1e6ddb	0.15471594
136	0xbe160f15	-0.14654191
137	0xbd67a5d3	-0.056554627
138	0xbc5594aa	-0.013035933
139	0x3bf518f2	0.0074797804
140	0xbdbf6ee6	-0.09347324
141	0xbdb5c0a7	-0.08874636
142	0xbdbb8a64	-0.09157255
143	0xbdbbddea	-0.09173186
144	0x3e44ac44	0.19206339
145	0x3d98a8a7	0.07454043
146	0xbd350a28	-0.04419914
147	0xbdeaa4b2	-0.114571944
148	0xbd382734	-0.044959262
149	0x3ccc35e4	0.02492804
150	0x3d7696db	0.06020246
151	0xbd0cb87e	-0.034355633
152	0xbc30b406	-0.010785108
153	0x3ddc1e09	0.10747916
154	0x3d149154	0.03627141
155	0x3dc6f1c9	0.097140856
156	0x3de02a60	0.109455824
157	0x3cda0033	0.026611423
158	0x3dfc6628	0.12324172
159	0xbd9eb8b9	-0.07750077

LSTM.weight_ih_l1 f4 [160, 40]
0	0xbdc0e4d2	-0.09418644
1	0xbcbed5b2	-0.023295257
2	0xbd70b37a	-0.058764912
3	0x3e0d5836	0.13803181
4	0x3e6ccd0d	0.23125096
5	0xbc7ea3d1	-0.015541987
6	0xbd072b5f	-0.033000346
7	0x3e81826e	0.25294822
8	0x3d245731	0.040122215
9	0xbe2a799d	-0.16647954
10	0x3d1676c7	0.03673437
11	0xbddf1a38	-0.10893673
12	0x3d222948	0.03959015
13	0x3cee8c8a	0.029119749
14	0x3d289ab8	0.041163176
15	0x3e30cccf	0.17265628
16	0x3df7b337	0.120947294
17	0x3d610409	0.05493549
18	0x3e0ca2c0	0.13733959
19	0x3d362b29	0.044474754
20	0xbc28c511	-0.010300891
21	0xbc6a263e	-0.014291344
22	0xbd467f8b	-0.04846148
23	0xbdcfe09a	-0.10150261
24	0x3e01ab73	0.12663059
25	0x3d107cc2	0.03527523
26	0x3dbf499e	0.09340213
27	0x3dff3ccb	0.12462767
28	0xbcb24a24	-0.021763869
29	0xbdd0164d	-0.101605035
30	0xbdbc601f	-0.09198021
31	0x3c651cf1	0.013983951
32	0xbd12e93b	-0.035866957
33	0x3dc3637c	0.095404595
34	0xbd60113e	-0.054703943
35	0x3cdf1e89	0.02723624
36	0xbdaf2acb	-0.08553084
37	0x3da85c43	0.082207225
38	0x3d84deaf	0.06487786
39	0x3dcc99df	0.09990286
40	0xbe626615	-0.22109254
41	0x3cd612a7	0.026131941
42	0x3d76edbe	0.060285322
43	0xbe0a2fed	-0.13494845
44	0xbe8789e4	-0.2647239
45	0x3e0787eb	0.13235442
46	0xbd9439ca	-0.07237585
47	0xbd0a7d8e	-0.033811145
48	0xbca83ae2	-0.02053589
49	0x3dd495f1	0.103801616
50	0xbdbdd40d	-0.09268961
51	0xbe06f520	-0.13179445
52	0x3db3d4e9	0.08780844
53	0xbde0dbbb	-0.1097941
54	0xbdb65c1f	-0.089042895
55	0xbddd1fc2	-0.10797073
56	0x3df6622d	0.12030444
57	0x3d8cbcde	0.06871961
58	0x3dc6fd03	0.09716227
59	0x3c95f921	0.01830727
60	0xbdb90d93	-0.09035792
61	0x3df52e54	0.11971727
62	0x3d1248f5	0.03571411
63	0xbc20ec80	-0.009822011
64	0x3d584650	0.05280143
65	0xbde48fe4	-0.111602575
66	0xbc9761a2	-0.018479172
67	0xbd815ea5	-0.0631688
68	0x3cc598e4	0.024120755
69	0x3d9b04e2	0.07569291
70	0xbe3f811c	-0.18701595
71	0x3e8dd3b1	0.2770057
72	0x3d80f67e	0.06297015
73	0x3c63c3b4	0.01390164
74	0x3e3f95d3	0.18709497
75	0x3c198668	0.009370424
76	0xbe7b6a43	-0.24552254
77	0xbd44349e	-0.047901742
78	0xbd944396	-0.072394535
79	0xbc7c116e	-0.015385015
80	0x3ce7741f	0.028253613
81	0xbde15c77	-0.110039644
82	0x3d9a9cb5	0.07549421
83	0xbc67aab3	-0.014139819
84	0x3abb2102	0.0014276805
85	0x3d873e1d	0.06603644
86	0xbd827039	-0.06369061
87	0x3d12ea52	0.035867997
88	0x3d728b58	0.05921492
89	0x3d6786c7	0.056525018
90	0x3e1cc500	0.15309525
91	0x3df5c5d8	0.12000626
92	0xbcc6f97e	-0.024288889
93	0x3dd53177	0.10409825
94	0x3ccb2d9b	0.02480202
95	0xbd1d846d	-0.03845637
96	0xbc8059e1	-0.015667858
97	0x3c8d9e3f	0.017287372
98	0xbbd66a09	-0.006543402
99	0xbd35c027	-0.044372704
100	0x3cbff87b	0.023433914
101	0x3dd7af7d	0.105315186
102	0x3db7cce9	0.089746304
103	0x3e13f04b	0.14447133
104	0x3d24bdc0	0.040220022
105	0x3d41bbe0	0.047298312
106	0x3aef2ca4	0.0018247557
107	0xbd9ee970	-0.077593684
108	0x3e13a2de	0.14417598
109	0xbd340ef6	-0.04395958
110	0x3d0aaa02	0.03385354
111	0x3e38eadb	0.1805834
112	0xbdca8b25	-0.09889821
113	0xbe09248a	-0.13392845
114	0x3c35abe9	0.01108835
115	0x3dea6110	0.114442945
116	0xbd8c7858	-0.06858891
117	0xbe0981b9	-0.13428392
118	0x3d8d8ef0	0.06912029
119	0xbd8e34fe	-0.06943701
120	0x3cf5777e	0.029964205
121	0xbd50bb49	-0.05095986
122	0xbcee0d6d	-0.029059136
123	0x3e79b716	0.24386248
124	0x3dbfc808	0.09364325
125	0x3dad40dc	0.084596366
126	0xbdae40de	-0.08508466
127	0x3e0d8f09	0.13824095
128	0xbde3f611	-0.11130918
129	0x3de5bec0	0.11218023
130	0xbd597f9f	-0.053100225
131	0xbde1c95b	-0.11024734
132	0x3da452ae	0.080235824
133	0xbd76dd4d	-0.060269643
134	0x3dfb1a99	0.122609325
135	0x3d3b11f7	0.04567143
136	0xbe2637d8	-0.1623224
137	0xbd780a7c	-0.060556874
138	0xbe3e70c5	-0.18597706
139	0xbcd06d3d	-0.025442714
140	0x3d6ed1ef	0.058305677
141	0x3dde3a32	0.108509436
142	0xbc9b32e6	-0.018945169
143	0x3d8c655a	0.06855269
144	0xbdd8b4f4	-0.10581389
145	0x3d4383be	0.04773306
146	0xbd726cc1	-0.059185747
147	0xbd116663	-0.035498034
148	0xbe3277cb	-0.1742851
149	0x3dc7eb2f	0.097616546
150	0xbd210234	-0.03930874
151	0x3d9c7be8	0.07640821
152	0x3bcf9897	0.006335329
153	0x37191649	9.124699e-06
154	0xbbb3586e	-0.005473188
155	0xbba70210	-0.0050966814
156	0xbdd00c6c	-0.10158619
157	0xbddaac0c	-0.106773466
158	0xbdcc5490	-0.099770665
159	0xba5aafff	-0.00083422655
160	0x3c6e09b3	0.01452868
161	0x3e31700b	0.17327897
162	0x3e19b754	0.1501134
163	0xbd1fde88	-0.03903058
164	0xbd34ece7	-0.04417124
165	0xbda49096	-0.0803539
166	0x3df68f3f	0.12039041
167	0xbd1b98b6	-0.037987433
168	0x3d13064e	0.035894684
169	0x3d7f59f4	0.062341645
170	0x3e2272f5	0.15864165
171	0x3d1f70dc	0.03892599
172	0xbdb26a03	-0.087116264
173	0xbca0397c	-0.01955866
174	0xbdee2767	-0.11628609
175	0xbe02db20	-0.12778902
176	0xbda9d71b	-0.08292981
177	0x3c93ef4e	0.018058445
178	0x3cbb6218	0.022873923
179	0xbe0e4ff1	-0.13897683
180	0xbd97583d	-0.07389877
181	0x3db9e199	0.090762325
182	0x3dce4376	0.10071461
183	0xbc3899df	-0.0112671545
184	0x3dbf7cfe	0.09350012
185	0xbd2f3896	-0.042778574
186	0xbd16f2c0	-0.0368526
187	0xbc3a4137	-0.0113680875
188	0xbe71fefd	-0.23632427
189	0x3da4d7da	0.08048983
190	0x3e32435c	0.17408508
191	0xbe8b2dd5	-0.27183405
192	0x3dbf7a6d	0.09349523
193	0x3dc68f9a	0.096953586
194	0xbe6944a3	-0.22780089
195	0xbe866e8b	-0.26256213
196	0xbd4c2e5f	-0.04984891
197	0xbd8040ad	-0.06262336
198	0xbe083bfb	-0.1330413
199	0xbdf35be7	-0.11882763
200	0xbb0a509e	-0.002110518
201	0xbdcc66ad	-0.09980521
202	0xbdbe0874	-0.09278956
203	0xbe0972df	-0.13422726
204	0xbdcbff5d	-0.09960816
205	0xbe3b6cd7	-0.18303238
206	0x3cbd2a47	0.023091448
207	0x3e50d1f1	0.20392586
208	0x3dc6b289	0.09702022
209	0x3df8cf5e	0.12148927
210	0x3dd75426	0.10514097
211	0x3d7b0025	0.061279435
212	0x3d6148f3	0.05500121
213	0xbd9f8b55	-0.07790247
214	0xbd21ec37	-0.039531913
215	0xbe003773	-0.12521152
216	0xbdd2b577	-0.10288518
217	0xb9dad5f8	-0.0004173962
218	0xbe1da5ad	-0.15395232
219	0xbe632236	-0.22181019
220	0xbc60210d	-0.013679755
221	0x3d8e3d73	0.06945314
222	0x3d95b5f8	0.073100984
223	0xbdf59265	-0.11990813
224	0x3e3500bd	0.17676063
225	0x3c8aee8f	0.016959457
226	0xbdbdf6f8	-0.09275621
227	0xbd829940	-0.06376886
228	0x3dd3ca82	0.1034136
229	0x3d87c527	0.06629401
230	0x3ddf6d2e	0.10909496
231	0xbe848902	-0.2588578
232	0x3e340c23	0.17582755
233	0x3db84f54	0.08999506
234	0x3d416bc4	0.047221914
235	0x3d6b018f	0.057374533
236	0xbe723cd1	-0.23656012
237	0xbde5b8ca	-0.11216886
238	0xbc80484d	-0.015659476
239	0xbe40470f	-0.18777107
240	0x3d2d3ad3	0.042292427
241	0xbdaf55b3	-0.08561268
242	0x3d1a4b9e	0.03766977
243	0xbe52e064	-0.2059341
244	0x3daea8c3	0.085282825
245	0x3e08e185	0.13367279
246	0x3dc1c0c6	0.09460597
247	0x3dda5c86	0.10662179
248	0x3d0e4b6b	0.034739893
249	0xbe147703	-0.14498524
250	0xbd95b0bb	-0.07309099
251	0x3dfa719a	0.12228699
252	0xbe299ad5	-0.1656297
253	0x3d142c87	0.036175277
254	0xbd9f1ab6	-0.077687666
255	0x3d51e576	0.05124422

LSTM.weight_hh_l1 f4 [160, 40]
0	0xbe117d75	-0.14208014
1	0x3bdf84b3	0.006821239
2	0x3d796a03	0.060892116
3	0xbd368f18	-0.04457006
4	0x3df73ba9	0.12071926
5	0x3df276af	0.11839043
6	0xbc5c7b06	-0.013457065
7	0x3d6875ad	0.05675285
8	0xbdd5e8b9	-0.10444779
9	0x3d40a6d1	0.04703409
10	0x3d8f95c5	0.07010988
11	0xbd30eaa5	-0.043192524
12	0xbe005645	-0.12532909
13	0x3d95d68f	0.073163144
14	0x3d5c6cfb	0.05381487
15	0xbdb14307	-0.086553626
16	0xba58769d	-0.0008257421
17	0xbe15cb41	-0.14628316
18	0xbcd3d309	-0.025857465
19	0xbe202077	-0.15637384
20	0xbdaae957	-0.08345287
21	0x3d31f06c	0.043442175
22	0xbd89a52a	-0.06720956
23	0x3d85c7d5	0.065322556
24	0xbcea8002	-0.028625492
25	0x3dcfc529	0.10145027
26	0x3daf0fdd	0.085479476
27	0x3e04ae21	0.1295705
28	0xbdafc1e1	-0.08581901
29	0xbe2707bf	-0.16311549
30	0xbddef734	-0.10886994
31	0xbc9ebe82	-0.01937795
32	0xbdc0806e	-0.09399496
33	0xbe253fde	-0.16137645
34	0xbdb957d2	-0.090499535
35	0xbd96834d	-0.073492624
36	0x3dfd6546	0.12372832
37	0xbe2b29b7	-0.16715132
38	0x3d35cf5d	0.04438721
39	0x3d98788a	0.07444866
40	0x3d7d15b5	0.06178828
41	0xbe046522	-0.12929204
42	0x3cbc9595	0.023020545
43	0xbce00eab	-0.027350744
44	0x3e120cac	0.14262646
45	0x3abb4315	0.001428696
46	0x3d864735	0.065565504
47	0x3a330773	0.0006829418
48	0x3da000b6	0.078126356
49	0xbdecbcf3	-0.11559477
50	0xbda12d07	-0.078699164
51	0xbdb68f44	-0.089140445
52	0x3d784406	0.060611747
53	0xbbbb3e6f	-0.00571423
54	0xbdf7657d	-0.12079904
55	0x3d909e1b	0.07061406
56	0xbcd41ad5	-0.0258917
57	0x3da611a6	0.08108835
58	0xbe03b7bd	-0.1286306
59	0x3dbe34dd	0.092874266
60	0xbe18629d	-0.14881368
61	0xbe3e0b78	-0.18559062
62	0x3de5b452	0.11216034
63	0x3daee325	0.08539418
64	0x3dcd0749	0.10011155
65	0xbd1daafc	-0.03849314
66	0xbdc18a6e	-0.094502315
67	0xbdb19faa	-0.08673032
68	0xbd4b21ad	-0.049592663
69	0xbd310ee9	-0.04322711
70	0x3e00ddc9	0.12584604
71	0xbda49e12	-0.08037962
72	0x3d0f6498	0.035008043
73	0x3e063916	0.13107714
74	0xbe08ae2b	-0.1334769
75	0xbdc027d1	-0.093825944
76	0xbdbb7b51	-0.0915438
77	0xbdad2d4f	-0.084559076
78	0x3e203621	0.15645649
79	0x3e0aacc6	0.1354247
80	0xbc411ee3	-0.011787149
81	0xbe0292fe	-0.12751386
82	0xbd286376	-0.04111048
83	0x3e05f5e2	0.13082078
84	0x3b24254c	0.0025046645
85	0x3e40f8e6	0.18844947
86	0x3c711dc4	0.014716569
87	0x3df8b28a	0.121434286
88	0x3e416555	0.18886311
89	0x3e429255	0.19001134
90	0xbd84874a	-0.06471117
91	0x3bc35051	0.005960502
92	0xbdc820ab	-0.09771856
93	0x3c4ecd8a	0.0126222465
94	0xbd6e5e02	-0.05819512
95	0xbd5702bd	-0.052492846
96	0x3e13c5df	0.1443095
97	0xbd0a9373	-0.033832025
98	0xbe190d45	-0.14946468
99	0x3e6d13ad	0.23152037
100	0x3cda017d	0.026612038
101	0xbe01d8e0	-0.12680387
102	0xbe0bedac	-0.13664883
103	0x3da5b09a	0.08090325
104	0x3e3b242a	0.18275514
105	0xbc8398fb	-0.016064158
106	0xbe82e67f	-0.2556648
107	0x3d345a46	0.044031404
108	0x3cae2070	0.021255702
109	0x3dd344fc	0.10315892
110	0xba2e8b6e	-0.000665835
111	0x3e284fd6	0.16436705
112	0x3e6bb530	0.23018336
113	0x3e347f31	0.17626645
114	0xbd1a7ca8	-0.037716538
115	0x3dfcf577	0.12351506
116	0xbccef125	-0.025261471
117	0x3e03f14e	0.12885019
118	0x3e3e3b29	0.18577255
119	0x3d05387d	0.032524575
120	0x3db317ef	0.08744799
121	0xbc042870	-0.008066282
122	0xbe08c00c	-0.1335451
123	0xbdbc6d36	-0.09200518
124	0x3b660712	0.003509943
125	0xbe0ed1b8	-0.13947189
126	0x3d003a92	0.031305857
127	0x3d0422b3	0.032259654
128	0xbd19281b	-0.037391763
129	0xbd885ec7	-0.06658702
130	0xbe2a8785	-0.16653259
131	0xbdbc4fa4	-0.09194878
132	0xbe1b50e3	-0.15167575
133	0xbe4af08d	-0.19818325
134	0x3e57df0a	0.21081176
135	0xbdd9fd38	-0.10644001
136	0x3df322cc	0.11871871
137	0xbd2cffa6	-0.042235993
138	0x3d459d49	0.048245702
139	0xbbd9ca4c	-0.00664643
140	0xbe115564	-0.1419273
141	0x3e0ddb85	0.13853271
142	0x3dc0be6c	0.0941132
143	0x3e2222ca	0.15833583
144	0xbe0bd6be	-0.13656136
145	0xbd58629b	-0.052828413
146	0x3bc82dd0	0.006108977
147	0xbdd56ae0	-0.104207754
148	0xbd76a007	-0.060211208
149	0x3d86333e	0.065527424
150	0xbca37f37	-0.019958122
151	0xbb402ef4	-0.0029324861
152	0x3e05e46d	0.13075419
153	0xbdb87e34	-0.09008446
154	0xbd69ad0d	-0.0570498
155	0x3d879431	0.06620062
156	0xbdf524c0	-0.119699
157	0xbd486327	-0.048922684
158	0x3dac9c34	0.08428231
159	0x3e05ada0	0.13054514
160	0xbdca4627	-0.09876662
161	0x3d972c97	0.07381552
162	0xbe017694	-0.1264289
163	0x3df21766	0.11820869
164	0x3d4a64ce	0.04941254
165	0x3e2bc431	0.1677406
166	0x3dbce017	0.09222429
167	0x3dd080e8	0.10180837
168	0x3ceb295e	0.028706249
169	0xbd370c56	-0.0446895
170	0x3d34a25b	0.044100147
171	0x3ceff56a	0.029291827
172	0xbdfafa17	-0.12254732
173	0xbdac0a50	-0.084004045
174	0x3d17fb1d	0.037104715
175	0x3db6a783	0.08918669
176	0xbdd89efd	-0.105771996
177	0x3de020b0	0.10943735
178	0x3d0cf03f	0.034408804
179	0xbda0986b	-0.078415714
180	0xbbc9d05c	-0.0061588716
181	0x3db92525	0.09040288
182	0x3c8eac8f	0.017416267
183	0xbd6dd6a7	-0.058066037
184	0xbdd84c1e	-0.10561393
185	0x3e0bbab2	0.13645437
186	0xbd8731e6	-0.06601314
187	0x3dc69737	0.09696811
188	0x3da7f6ec	0.082013935
189	0x3d6f0f3e	0.058364145
190	0x3de7c287	0.113164
191	0x3e142d0a	0.14470306
192	0xbbf1e0b0	-0.007381521
193	0xbe03da36	-0.1287621
194	0x3e41049e	0.18849418
195	0x3dacaa6a	0.084309414
196	0xbd8a5755	-0.067549385
197	0xbde273fc	-0.110572785
198	0x3d249a2d	0.040186096
199	0x3e22975a	0.15878049
200	0xbdc41ea6	-0.09576158
201	0xbdf82f39	-0.12118382
202	0xbda396e6	-0.07987766
203	0xbd00205d	-0.031280864
204	0x3d04a30d	0.03238206
205	0xbda77355	-0.08176295
206	0x3df449a9	0.11928112
207	0x3c927079	0.017875897
208	0x3d77aabd	0.060465563
209	0x3df89b46	0.12138991
210	0xbd4636a6	-0.04839196
211	0xbdce88b3	-0.10084667
212	0xbdbdaa83	-0.09261038
213	0x3dfe0c29	0.12404663
214	0xbd804b8d	-0.0626441
215	0x3e063108	0.13104641
216	0x3dae648b	0.08515271
217	0xbc4988aa	-0.01230065
218	0x3cf2062b	0.029543957
219	0x3c80ff6b	0.015746793
220	0xbdae7edd	-0.08520291
221	0xbd5bbf44	-0.053649202
222	0xbd0021e3	-0.031282317
223	0x3cf93495	0.03042058
224	0x3e0eae6b	0.13933723
225	0x3dba5759	0.090986915
226	0xbd5265b5	-0.051366527
227	0x3e255900	0.16147232
228	0x3e15fde6	0.14647636
229	0x3d3694a3	0.044575345
230	0xbdb8085b	-0.08985969
231	0xbdc9e765	-0.09858588
232	0x3c232abb	0.009958918
233	0x3dd44154	0.10364023
234	0xbc08bf99	-0.008346462
235	0x3c70c40c	0.014695179
236	0x3cf98d3a	0.03046285
237	0x3cf6024c	0.030030392
238	0xbce5b8f2	-0.02804229
239	0x3deca31a	0.11554547
240	0x3d228231	0.03967494
241	0xbda8713e	-0.08224724
242	0xbd708451	-0.058719937
243	0x3df3a775	0.11897174
244	0x3d6a2da1	0.05717242
245	0x3cfdfa69	0.031003194
246	0x3ca7ca53	0.020482218
247	0xbda6e96b	-0.0814999
248	0xbde17071	-0.110077746
249	0x3e0f5e0e	0.14000723
250	0x3e15031b	0.14551966
251	0x3dc92c00	0.098228455
252	0x3c4afe44	0.012389723
253	0xbbb60805	-0.005555155
254	0x3b556c89	0.0032565913
255	0x3b180ffb	0.0023202884

LSTM.bias_ih_l1 f4 [160]
0	0x3cb3ae94	0.021933831
1	0xbe0551ed	-0.13019533
2	0xbdb8f7d3	-0.09031644
3	0xbd333a9f	-0.043757077
4	0x3e3a70a8	0.18207037
5	0x3d2d474e	0.04230433
6	0xbcbbd40a	-0.022928257
7	0x3c351105	0.011051421
8	0x3e22dbe0	0.15904188
9	0x3d76405b	0.060119968
10	0x3da19a2f	0.07890736
11	0x3e0f370e	0.13985845
12	0x3d56a530	0.05240363
13	0xbda6c996	-0.08143918
14	0x3e3ee77e	0.18642995
15	0x3e3e32a4	0.18574005
16	0x3c9cecd7	0.019155903
17	0xbd5578cd	-0.052117158
18	0x3d5ed3c9	0.054401193
19	0xbdd4b542	-0.10386135
20	0xbd6185c3	-0.055059206
21	0xbd72659f	-0.059178945
22	0x3e121b4a	0.14268222
23	0x3e298aaf	0.1655681
24	0x3d57f79c	0.052726373
25	0xbde6cef0	-0.11269939
26	0x3d637fa1	0.05554164
27	0xbdf9a8dc	-0.121904105
28	0x3d7b305c	0.061325416
29	0x3e35bdb0	0.17748141
30	0x3dec1a39	0.11528439
31	0xbcf63808	-0.030056015
32	0x3dadbc93	0.08483233
33	0x3e014cde	0.12626979
34	0xbe1f9d40	-0.1558733
35	0x3df5eec2	0.1200843
36	0xb9804ec5	-0.0002447275
37	0xbd8081bf	-0.06274747
38	0xbd678ea5	-0.05653252
39	0x3d82a172	0.063784495
40	0xbaadf22d	-0.0013271027
41	0xbd330c23	-0.043712746
42	0x3d9aa582	0.07551099
43	0x3e117e4e	0.14208338
44	0x3dd08345	0.10181288
45	0x3d8ceedf	0.068814985
46	0xbdec42c4	-0.11536172
47	0xbda9abc6	-0.08284716
48	0xbbdaf289	-0.0066817445
49	0xbd37a2f3	-0.044833135
50	0xbdc3259b	-0.09528657
51	0xbd210ba7	-0.039317753
52	0xbd32b381	-0.04362822
53	0xbde70dc2	-0.11281921
54	0xbd9f8622	-0.07789256
55	0x3d38e560	0.045140624
56	0x3e0db321	0.13837864
57	0x3e0b7421	0.13618518
58	0xbe0971f4	-0.13422376
59	0xbcb2ee93	-0.021842277
60	0x3da799b9	0.08183617
61	0x3dc92b54	0.09822717
62	0xbd94cd65	-0.072657384
63	0x3dc07800	0.09397888
64	0x3db20625	0.08692578
65	0x3df9a7dd	0.121902205
66	0x3e4d608e	0.20056364
67	0xbdbc80e9	-0.09204275
68	0x3d8eacf1	0.0696658
69	0x3aae347a	0.0013290786
70	0x3e071eca	0.13195339
71	0x3c40b075	0.011760821
72	0xbd9cdd01	-0.07659341
73	0x3aa06fb0	0.0012240317
74	0xbdbdb593	-0.09263148
75	0xbdc17043	-0.0944524
76	0x3d345dd2	0.044034787
77	0xbdafcff7	-0.08584588
78	0xbd6f9554	-0.05849202
79	0xbe04c9da	-0.12967625
80	0x3bfba447	0.0076794955
81	0x3e18e1a1	0.1492982
82	0xbd4e4533	-0.050358962
83	0xbd9bd94e	-0.07609807
84	0xbd291432	-0.041279025
85	0xbd012d6c	-0.03153746
86	0xbd73d4b2	-0.059529014
87	0x3dc099cd	0.09404335
88	0x39ecf51d	0.0004519605
89	0x3dbd9ecd	0.092588045
90	0x3e1596b8	0.14608276
91	0x3dcbe4e8	0.0995577
92	0xbe076b21	-0.1322446
93	0x3d8c8593	0.06861415
94	0x3d89441a	0.067024425
95	0xbb26eab9	-0.0025469495
96	0x3d26cb4e	0.04072123
97	0xbd926e1f	-0.0714991
98	0xbcbe6444	-0.02324117
99	0x3d9ab21e	0.075535044
100	0xbb47302a	-0.0030393698
101	0x3d35fc58	0.044430107
102	0x3e267375	0.16254981
103	0xbd484e66	-0.04890289
104	0xbce70afa	-0.028203476
105	0x3cf4979c	0.02985745
106	0x3e26f45e	0.16304156
107	0xbc0eec66	-0.008723354
108	0x3c97b5cd	0.018519307
109	0xbd0b2ec9	-0.033980165
110	0xbd9b71c0	-0.075900555
111	0xbdab98df	-0.08378767
112	0x3dd7ed8c	0.10543355
113	0xbe2c1f80	-0.16808891
114	0x3e04c17f	0.12964438
115	0x3dfce6f3	0.123487376
116	0xbd92e760	-0.071730375
117	0x3dc1df08	0.09466368
118	0x3d72da06	0.059289955
119	0xbc57dd84	-0.013175372
120	0x3d035092	0.03205926
121	0xbdda2ea9	-0.10653431
122	0x3db8bc1a	0.090202525
123	0xbd5c5a24	-0.053796902
124	0x3deb4613	0.11487975
125	0x3df4a934	0.119463354
126	0xbdaf636b	-0.08563884
127	0x3d206f0d	0.039168406
128	0xbda0b68e	-0.078473195
129	0xbb8602ea	-0.004089703
130	0x3d87187a	0.065964654
131	0x3e47c68a	0.1950933
132	0x3e1f1d7e	0.15538594
133	0x3d4ee28f	0.05050903
134	0x3cd8b335	0.02645264
135	0x3e5f6d0f	0.21818946
136	0x3de7b3e1	0.11313606
137	0x3e408741	0.18801595
138	0xb9ca998d	-0.00038642847
139	0x3bdc54b9	0.006723967
140	0xbdc21a49	-0.0947767
141	0x3e256463	0.16151576
142	0xbc64e65e	-0.013970939
143	0xbdf0f495	-0.117654
144	0x3e100c9d	0.14067312
145	0xbd705878	-0.05867812
146	0x3e1e54cc	0.15462035
147	0xbd33bfdb	-0.04388414
148	0x3d50f647	0.05101612
149	0xbad9f385	-0.0016628361
150	0x3dfe83d0	0.12427485
151	0xbceb86ad	-0.028750742
152	0xbd5c7064	-0.05381812
153	0x3e5eac21	0.2174535
154	0x3cd6fd09	0.026243703
155	0x3d5b7208	0.053575546
156	0xbdbbc257	-0.09167927
157	0x3dc6acc0	0.09700918
158	0x3d60e363	0.054904353
159	0x3e0af1d9	0.1356882

LSTM.bias_hh_l1 f4 [160]
0	0x3d5806e9	0.052740965
1	0xbc960ea1	-0.018317522
2	0xbd6ef9c9	-0.058343682
3	0xbe0b0336	-0.13575444
4	0x3d8079b7	0.06273215
5	0x3ccaaa3a	0.024739373
6	0x3e165207	0.14679728
7	0x3d2a91cd	0.041642953
8	0x3d193564	0.037404433
9	0x3d578e41	0.0526259
10	0x3e400677	0.18752466
11	0xbdb7059d	-0.089366175
12	0x3c04c2fe	0.00810313
13	0x3d685a04	0.05672647
14	0x3e127a1e	0.14304397
15	0xbd9ae29d	-0.07562754
16	0x3d7a9e21	0.06118596
17	0x3e0c7087	0.13714801
18	0x3cceaeb2	0.025229786
19	0x3b90c014	0.0044174287
20	0xbe0678da	-0.13132039
21	0xbe08f090	-0.13373017
22	0xbc380195	-0.011230846
23	0xbdcd9340	-0.10037851
24	0x3d948798	0.07252425
25	0x3bad4fdb	0.0052890605
26	0xbd7a9e15	-0.061185915
27	0xbcd2ade8	-0.02571769
28	0x3e0cb995	0.13742669
29	0xbd9d84b8	-0.0769133
30	0xbc30923b	-0.010777052
31	0x3d455e0e	0.0481854
32	0x3cad9652	0.021189842
33	0x3e02199a	0.12705079
34	0x3b2151d1	0.0024615417
35	0x3d95e932	0.07319869
36	0xbdb4ce86	-0.08828454
37	0x3c4d448c	0.01252855
38	0x3caedd8a	0.021345872
39	0xbd3ac36b	-0.04559652
40	0x3dfee549	0.124460764
41	0xbd27f6c2	-0.04100681
42	0x3d71c48f	0.059025344
43	0xbd1860b4	-0.0372016
44	0x3d5b5244	0.05354525
45	0x3cdd1474	0.026987292
46	0xbd057787	-0.032584693
47	0xbd64d40f	-0.055866297
48	0x3b4c4481	0.0031168761
49	0x3e353297	0.1769508
50	0xbdc9856d	-0.09839902
51	0x3e510d1a	0.20415154
52	0x3b875917	0.0041304934
53	0x3d83c466	0.064339444
54	0xbd21af38	-0.039473742
55	0xbcdf8037	-0.027282817
56	0x3da661dc	0.08124134
57	0x3d38800d	0.045043994
58	0xbdbbe72b	-0.09174951
59	0xbdc612bc	-0.09671542
60	0x3e3e44e5	0.18580969
61	0x3e3534a5	0.17695864
62	0xbdc0a579	-0.094065614
63	0xbd75abe6	-0.05997839
64	0xbc2cd207	-0.010548121
65	0x3d220423	0.039554726
66	0x3dead85c	0.114670485
67	0xbe112d6b	-0.14177482
68	0x3dd920a7	0.10601931
69	0x3e1fd027	0.15606748
70	0x3e1d3def	0.15355657
71	0xbd16cd30	-0.036816776
72	0x3e0a858c	0.13527507
73	0xbda75a2f	-0.08171498
74	0x3cfea794	0.031085767
75	0xbdcb3a82	-0.09923269
76	0x3e1c04bf	0.15236185
77	0xbddfbb0d	-0.10924349
78	0xbd829844	-0.063766986
79	0x3e0dab65	0.13834913
80	0x3dea6411	0.114448674
81	0x3dba3f1c	0.090940684
82	0x3de47c57	0.111565284
83	0x3d8f06b0	0.069836974
84	0x3dde49ae	0.10853897
85	0x3d447659	0.047964428
86	0x3e0fdd29	0.1404921
87	0x3d81afef	0.06332385
88	0xbcd358f8	-0.02579926
89	0x3d6945b2	0.056951232
90	0xbe0361b1	-0.12830235
91	0x3dbd07fc	0.092300385
92	0x3d07bc84	0.033138767
93	0xbda4650c	-0.08027086
94	0xbde51878	-0.11186308
95	0x3df2ff7a	0.118651345
96	0x3dad8a1b	0.08473607
97	0xbcfdd8ab	-0.030987104
98	0x3ded52ee	0.11588083
99	0xbe062b55	-0.13102467
100	0x3e11e513	0.14247541
101	0x3e1f1d71	0.15538575
102	0x3d9a71df	0.075412504
103	0x3c45b1cf	0.012066319
104	0xbe200fde	-0.15631053
105	0x3d46fe07	0.048582103
106	0xbde26b33	-0.11055603
107	0x3d85bed8	0.06530541
108	0x3d9a96bc	0.075482816
109	0x3d1350fc	0.035965905
110	0xbd11f828	-0.03563705
111	0xbd5c170c	-0.053732917
112	0xbc8f1311	-0.017465146
113	0xbe106253	-0.14100008
114	0x3da4108e	0.0801097
115	0xbbf576bd	-0.0074909613
116	0x3d7864ac	0.060642883
117	0x3e0c94cc	0.13728637
118	0x3bc7e628	0.006100435
119	0x3d505bb4	0.050868705
120	0xbdca3dd6	-0.098750755
121	0x3d1b2632	0.037878223
122	0x3e4bc315	0.19898637
123	0xbdbbe558	-0.09174603
124	0xbd2e29a1	-0.04252017
125	0x3e3c48e6	0.18387184
126	0xbdb7b9f3	-0.08971014
127	0x3e2b48a5	0.1672693
128	0x3dca2d0f	0.098718755
129	0x3e058569	0.13039173
130	0x3d092b5d	0.03348862
131	0xbd8c57e4	-0.06852701
132	0xbc3b8c4b	-0.011447023
133	0x3ac13b29	0.0014742363
134	0xbc842195	-0.016129294
135	0x3e691118	0.22760427
136	0x3e466ce9	0.19377483
137	0x3d5cbb5d	0.05388962
138	0x3dfe7dbb	0.12426325
139	0xbdf4fee8	-0.11962682
140	0xbdb05460	-0.08609843
141	0x3db64e65	0.08901671
142	0x3e3b39fa	0.18283835
143	0xbd40b1f0	-0.047044694
144	0x3dae16f5	0.085004725
145	0x3e1d0e45	0.15337475
146	0x3e65faa3	0.22458892
147	0x3d96144f	0.07328092
148	0x3e59f1c7	0.21283637
149	0xbd5ef5ca	-0.05443362
150	0x3d1c4343	0.038150083
151	0x3dff9ec2	0.124814525
152	0x3ca14e7b	0.019690743
153	0x3df39143	0.11892941
154	0x3b74ff0d	0.0037383467
155	0x3d622191	0.055207793
156	0xbd66c7a4	-0.056342736
157	0xbddb13e9	-0.10697157
158	0x3df08848	0.117447436
159	0x3c785b62	0.015158506
