checkpoints/Transformer/Transformer.pth (torch, 385061 bytes, 64 tensors)

encoder_layer.self_attn.in_proj_weight f4 [48, 16]
0	0x3d782338	0.060580462
1	0x3e1db6ea	0.15401807
2	0xbc512ec0	-0.012767494
3	0x3d1e28e0	0.0386132
4	0x3e65c4f2	0.2243841
5	0x3c2e4de0	0.010638684
6	0x3e4fd7ba	0.20297137
7	0xbd973dfa	-0.07384868
8	0x3e9bcf75	0.30431715
9	0xbe06b87e	-0.13156316
10	0x3e491792	0.19637898
11	0xbd2204f8	-0.03955552
12	0x3d97ee2c	0.074184746
13	0xbd046650	-0.032324135
14	0x3d8b4120	0.06799531
15	0xbe1fd13c	-0.1560716
16	0x3da3146c	0.079628795
17	0xbc1d8820	-0.009614974
18	0x3dac74a0	0.08420682
19	0xbe4dab3d	-0.20084853
20	0x3e4a559e	0.19759223
21	0xbdfb0c02	-0.1225815
22	0xbe0dcbf7	-0.13847338
23	0x3e5d250e	0.21596166
24	0xbe52ee44	-0.20598704
25	0xbd579f78	-0.052642316
26	0xbd04a068	-0.032379538
27	0xbe92946e	-0.28628868
28	0x3e05f8c8	0.13083184
29	0xbe3c552f	-0.1839187
30	0x3e48fb1e	0.19627044
31	0x3d76c020	0.06024182
32	0xbdedfee8	-0.11620885
33	0xbe26e7a8	-0.16299307
34	0x3cd8ced0	0.026465803
35	0xbd64f820	-0.055900693
36	0xbe62174d	-0.22079201
37	0x3d4e7b10	0.05041033
38	0xbdae730a	-0.08518036
39	0x3e861d8b	0.26194414
40	0xbe846fcc	-0.25866544
41	0xbd9a018e	-0.07519828
42	0xbcaf9040	-0.021431088
43	0x3dcfb080	0.101410866
44	0xbe338c7f	-0.17534064
45	0x3ca593e0	0.020212114
46	0xbe0bd19a	-0.13654175
47	0xbb605100	-0.0034227967
48	0xbdfe8284	-0.12427238
49	0x3e3d041a	0.18458596
50	0x3e8df59d	0.2772645
51	0xbe5698eb	-0.20956771
52	0x3e78c2d6	0.24293074
53	0x3e5f4e4a	0.21807209
54	0xbd8292ec	-0.063756794
55	0xbe3555d0	-0.17708516
56	0x3da8fd1c	0.08251402
57	0x3e0ffb54	0.14060718
58	0xbe6ee8c9	-0.23330988
59	0x3dd7c3c4	0.10535386
60	0x3d633600	0.05547142
61	0x3e95615d	0.29175845
62	0x3df4e09c	0.11956903
63	0x3e96746b	0.29385695
64	0x3e4ac4c6	0.19801626
65	0xbe34cae1	-0.17655517
66	0xbe60f094	-0.21966773
67	0xbe86f74e	-0.26360554
68	0xbe8a9644	-0.2706777
69	0xbe896f31	-0.26842645
70	0x3dc1d810	0.09465039
71	0xbde0f926	-0.10985021
72	0x3e70ef86	0.23528871
73	0x3df06f38	0.11739963
74	0xb911d000	-0.00013905764
75	0x3e67c042	0.22631934
76	0xbe0eefe3	-0.13958697
77	0xbd4363b0	-0.04770249
78	0xbe8f9c00	-0.28048706
79	0x3e255f90	0.16149735
80	0x3df4c410	0.119514585
81	0xbd189638	-0.037252635
82	0x3d0deec8	0.034651548
83	0xbe90e677	-0.2830083
84	0xbaf82f00	-0.0018934906
85	0x3d98b144	0.07455686
86	0x3e6a8f7e	0.229063
87	0x3e85860d	0.26078835
88	0x3dd8c450	0.10584319
89	0xbe3b115d	-0.18268342
90	0xbdd38870	-0.10328758
91	0x3d9d2f2c	0.07675013
92	0xbe1e0364	-0.15430981
93	0xbe11ac7d	-0.14225955
94	0xbe76c09c	-0.24096912
95	0x3e5a218a	0.21301857
96	0x3e0f232e	0.13978264
97	0x3daaa238	0.08331722
98	0xbca1bb40	-0.019742608
99	0x3e808cc1	0.25107387
100	0xbcabcff0	-0.020973176
101	0xbd9590fe	-0.07303046
102	0xbdb16164	-0.08661154
103	0xbd9f5284	-0.077794105
104	0x3e94d027	0.29065058
105	0xbdb511dc	-0.08841297
106	0xbe9ad0a3	-0.30237302
107	0xbe8b6068	-0.2722199
108	0x3dd9c6a8	0.10633594
109	0xbda3eba6	-0.08003931
110	0x3e99ce9f	0.30040452
111	0xbe70d882	-0.23520091
112	0xbe8cab7b	-0.2747458
113	0xbe0f6258	-0.14002359
114	0xbe7fa50c	-0.24965304
115	0x3e686866	0.22696075
116	0x3e8573ab	0.2606481
117	0xbe95b617	-0.29240486
118	0x3e001aa2	0.1251016
119	0x3d880b44	0.06642774
120	0x3c86a9d0	0.016438395
121	0x3db8314c	0.08993778
122	0x3ca790a0	0.020454705
123	0xbcd6f5a0	-0.02624017
124	0xbe983f42	-0.29735762
125	0xbdc8be64	-0.09801939
126	0xbc93c000	-0.018035889
127	0xbc1864c0	-0.009301364
128	0xbe26e867	-0.16299592
129	0x3e3a9f50	0.18224835
130	0xbd91c6b4	-0.07117978
131	0xbda18cfe	-0.0788822
132	0xbe95cf23	-0.29259595
133	0xbe17685d	-0.14785905
134	0x3e85e605	0.26152053
135	0xba722a00	-0.0009237826
136	0x3e1e0da4	0.15434891
137	0xbe53bc74	-0.20677358
138	0xbe79aa65	-0.24381407
139	0x3e931acb	0.2873138
140	0x3e16a5e4	0.1471172
141	0x3e9c5127	0.30530664
142	0x3e61499a	0.22000733
143	0x3d773b18	0.06035909
144	0xbd9ea8bc	-0.07747027
145	0x3c56db20	0.013113767
146	0x3df3c358	0.11902493
147	0x3e4ed4ea	0.20198408
148	0x3dd1996c	0.10234341
149	0xbe5338c4	-0.20627123
150	0x3e0b2be4	0.13590962
151	0x3d59b9c0	0.05315566
152	0x3e828fef	0.25500438
153	0x3e095ab0	0.13413501
154	0x3d1a51e0	0.03767574
155	0xbe6606c2	-0.22463515
156	0xbe0fc8de	-0.14041469
157	0xbdd003f8	-0.10157007
158	0xbe4dc361	-0.20094062
159	0x3e8caf6f	0.27477595
160	0xbd699ee4	-0.057036296
161	0xbe91662c	-0.28398263
162	0x3defa1c0	0.11700773
163	0xbd91b716	-0.07114999
164	0xbdd82dba	-0.10555597
165	0x3d1dc378	0.03851649
166	0x3d687ad8	0.056757778
167	0xbdc21804	-0.09477237
168	0x3ceb9110	0.028755695
169	0x3e494ca2	0.1965814
170	0x3e375d9c	0.17906803
171	0xbe75d747	-0.24007903
172	0xbe981fbf	-0.2971172
173	0xbe736e13	-0.23772459
174	0x3e489e2a	0.19591585
175	0x3e9c71e3	0.3055564
176	0x3dbf52a4	0.09341934
177	0xbe2cc458	-0.16871774
178	0x3d5bc010	0.053649962
179	0x3e81b55d	0.25333682
180	0xbe2e6de0	-0.17034101
181	0xbe3a86d6	-0.18215498
182	0xbe93fe1c	-0.28904808
183	0xbdbe3b62	-0.0928867
184	0x3d29f410	0.04149252
185	0xbd711d80	-0.058866024
186	0xbe49060f	-0.19631217
187	0xbe3b2dd2	-0.18279198
188	0xbd905c82	-0.070488945
189	0x3e578aae	0.21048996
190	0xbe22a9bb	-0.1588506
191	0x3d36ea48	0.04465702
192	0xbe9459e6	-0.28974837
193	0x3e38c930	0.18045497
194	0xbb076200	-0.0020657778
195	0x3e49bdc6	0.19701299
196	0xbd8aca2c	-0.067768425
197	0xbe6fe532	-0.23427275
198	0x3e00fa3e	0.1259546
199	0x3e3bd6f0	0.18343711
200	0x3e8dc419	0.27688673
201	0x3e7d63da	0.24745122
202	0xbe37c817	-0.17947422
203	0x3e5bff0a	0.21484008
204	0xbe89fd66	-0.2695114
205	0xbe826696	-0.25468892
206	0xbe5dfe28	-0.21678984
207	0xbd43be80	-0.047789097
208	0xbde69022	-0.1125796
209	0xbd847e16	-0.064693615
210	0xbd4af010	-0.049545348
211	0xbe872ad6	-0.2639987
212	0x3ca2d360	0.019876182
213	0xbe2cd688	-0.16878712
214	0x3e6f5bba	0.23374835
215	0xbe8cbf19	-0.27489546
216	0xbe1db193	-0.1539977
217	0xbe3a48b5	-0.18191798
218	0x3e623926	0.22092113
219	0xbe6c0204	-0.23047644
220	0xbca57ae0	-0.020200193
221	0x3b1b2780	0.0023674667
222	0xbe51f3e0	-0.20503187
223	0xbe0c04c3	-0.13673691
224	0xbe7ae505	-0.24501427
225	0x3d4a6530	0.049412906
226	0xbe43f2d0	-0.19135594
227	0xbdbeae9e	-0.09310649
228	0x3c82dd50	0.01597467
229	0x3dd7b880	0.105332375
230	0xbe4c06ee	-0.19924518
231	0x3e35eb40	0.17765522
232	0x3e30f688	0.17281544
233	0xbd56b668	-0.05242005
234	0xbda07896	-0.078355
235	0x3e2e1090	0.16998506
236	0x3da89b1c	0.0823271
237	0x3d1ab1f0	0.03776735
238	0xbe14bd48	-0.1452533
239	0x3dd8badc	0.105825156
240	0xbdec05fc	-0.11524579
241	0x3e3d0b4a	0.18461338
242	0x3e3080a2	0.1723657
243	0x3d712358	0.058871597
244	0x3c1ecbe0	0.009692162
245	0xbe394e6d	-0.18096323
246	0x3df4e5c0	0.11957884
247	0x3d9e7f5c	0.077391356
248	0xbe84c7f8	-0.25933814
249	0x3e999969	0.29999855
250	0xbe95ce8b	-0.29259142
251	0x3e99523d	0.29945555
252	0x3e9c71b5	0.30555502
253	0x3e2ad962	0.16684487
254	0xbe8bbdad	-0.2729315
255	0x3e813367	0.2523453

encoder_layer.self_attn.in_proj_bias f4 [48]
0	0x00000000	0.0
1	0x00000000	0.0
2	0x00000000	0.0
3	0x00000000	0.0
4	0x00000000	0.0
5	0x00000000	0.0
6	0x00000000	0.0
7	0x00000000	0.0
8	0x00000000	0.0
9	0x00000000	0.0
10	0x00000000	0.0
11	0x00000000	0.0
12	0x00000000	0.0
13	0x00000000	0.0
14	0x00000000	0.0
15	0x00000000	0.0
16	0x00000000	0.0
17	0x00000000	0.0
18	0x00000000	0.0
19	0x00000000	0.0
20	0x00000000	0.0
21	0x00000000	0.0
22	0x00000000	0.0
23	0x00000000	0.0
24	0x00000000	0.0
25	0x00000000	0.0
26	0x00000000	0.0
27	0x00000000	0.0
28	0x00000000	0.0
29	0x00000000	0.0
30	0x00000000	0.0
31	0x00000000	0.0
32	0x00000000	0.0
33	0x00000000	0.0
34	0x00000000	0.0
35	0x00000000	0.0
36	0x00000000	0.0
37	0x00000000	0.0
38	0x00000000	0.0
39	0x00000000	0.0
40	0x00000000	0.0
41	0x00000000	0.0
42	0x00000000	0.0
43	0x00000000	0.0
44	0x00000000	0.0
45	0x00000000	0.0
46	0x00000000	0.0
47	0x00000000	0.0

encoder_layer.self_attn.out_proj.weight f4 [16, 16]
0	0xbd6ab278	-0.057299107
1	0xbd1a6538	-0.037694186
2	0x3d20c3e0	0.0392493
3	0x3e3b910a	0.18317047
4	0xbe00acfa	-0.12565985
5	0x3e08f06a	0.1337296
6	0x3e0e08c8	0.13870537
7	0x3dce6a54	0.10078874
8	0x3c3810a0	0.011234432
9	0x3e1d438a	0.15357795
10	0xbe6da93c	-0.23209089
11	0x3d70a600	0.05875206
12	0x3e1503b4	0.14552194
13	0x3e603256	0.21894202
14	0xbde1867c	-0.11011979
15	0x3d3171d8	0.04332146
16	0xbcfd0be0	-0.030889452
17	0x3e0d87fc	0.13821405
18	0xbe7b97f2	-0.24569681
19	0x3df4bb8c	0.11949834
20	0xbd4f2138	-0.05056879
21	0xbe67be50	-0.22631192
22	0xbe6042ba	-0.21900454
23	0x3d2766b8	0.040869445
24	0xbba996c0	-0.0051754415
25	0x3ded3df4	0.11584082
26	0xbb829bc0	-0.003985852
27	0x3e4789ce	0.19486162
28	0x3c31e9c0	0.010858953
29	0xbe56ae20	-0.20964861
30	0x3e6d2aa0	0.23160791
31	0x3d1291e0	0.03578365
32	0xbd9834cc	-0.07431945
33	0xbe2158ba	-0.15756503
34	0xbd667cd8	-0.056271404
35	0xbd785b48	-0.060633928
36	0xbde11450	-0.109902024
37	0x3e5708d8	0.20999467
38	0x3e3be2b4	0.18348199
39	0xbe6d9bee	-0.23204014
40	0xbd1c4a00	-0.03815651
41	0xbe5608fc	-0.20901865
42	0xbdc40da0	-0.09572911
43	0xbe238862	-0.15969995
44	0xbe5059d4	-0.20346767
45	0xbe511112	-0.20416668
46	0x3e509020	0.2036748
47	0x3e1ffec4	0.15624529
48	0xbd7a97c0	-0.061179876
49	0x3c109b40	0.008826077
50	0xbe338ff2	-0.1753538
51	0xbe50dd5e	-0.20396945
52	0xbe7d5632	-0.24739912
53	0x3da162bc	0.0788016
54	0x3cbe84c0	0.02325666
55	0x3e18f32a	0.1493651
56	0xbe469c50	-0.19395566
57	0xbc16dee0	-0.009208411
58	0xbe1857ac	-0.14877194
59	0xbde3805c	-0.11108467
60	0x3e50766e	0.20357677
61	0x3e23c708	0.15993893
62	0xbbcbe740	-0.0062226355
63	0x3d043040	0.032272577
64	0x3d9b5d54	0.0758616
65	0xbe476ba8	-0.19474661
66	0xbe30faf4	-0.17283231
67	0xbdd95114	-0.106111676
68	0x3e284796	0.16433558
69	0x3e2e9a40	0.17051029
70	0x3e3972e2	0.1811023
71	0xbdcac6c4	-0.09901193
72	0xbe05bed6	-0.1306108
73	0xbc8f08d0	-0.017460257
74	0x3e224e8c	0.15850276
75	0xbdc973ac	-0.09836516
76	0x3ddd4a58	0.108051956
77	0x3ca20450	0.019777447
78	0xbe00635a	-0.125379
79	0x3d2c13a0	0.042010903
80	0x3e4f99ba	0.20273486
81	0xbe4cd192	-0.2000182
82	0x3dae1fd8	0.085021675
83	0xbe7df65e	-0.24801013
84	0xbdb7dd6c	-0.0897778
85	0x3e2cc61e	0.1687245
86	0x3dedeffc	0.11618039
87	0x3e0240a6	0.12719974
88	0xbe1fc724	-0.1560331
89	0xbde42118	-0.11139125
90	0xbe22adfa	-0.1588668
91	0x3d90723c	0.070530385
92	0xbda7dec8	-0.08196789
93	0xbc983a60	-0.018582523
94	0xbe566c22	-0.20939687
95	0xbe0dfcb8	-0.13865936
96	0x3daac7ac	0.08338866
97	0xbc575340	-0.013142407
98	0xbe119f2c	-0.14220876
99	0x3cf4db90	0.029889852
100	0x3c2197e0	0.00986287
101	0xbdf8af44	-0.12142804
102	0xbe0ca9ae	-0.13736603
103	0x3d10d518	0.035359472
104	0xbe4a0e22	-0.19731954
105	0x3da00e98	0.078152835
106	0x3dd5ae90	0.10433686
107	0x3e151cde	0.14561793
108	0x3d1ca758	0.03824553
109	0xbd7d0a58	-0.061777443
110	0x3da33848	0.07969719
111	0x3dae6f94	0.085173756
112	0x3d90ba40	0.07066774
113	0x3d8bfaec	0.06834969
114	0xbe435dc4	-0.19078737
115	0xbe0de1d4	-0.13855678
116	0x3c3371a0	0.010952383
117	0xbd85c580	-0.06531811
118	0xbd022fa8	-0.03178373
119	0xbe3ba43c	-0.18324369
120	0x3d6c88b8	0.057747573
121	0x3d3cc330	0.046084583
122	0xbd84871c	-0.064710826
123	0xbd010968	-0.03150311
124	0xbcf2d810	-0.029644042
125	0xbbdd1900	-0.006747365
126	0xbe392bce	-0.18083116
127	0xbd20d090	-0.0392614
128	0xbd93f768	-0.07224923
129	0x3e3e6e4a	0.1859676
130	0x3dfa5188	0.12222582
131	0x3dded448	0.10880333
132	0x3de7c6f0	0.11317241
133	0x3d45d690	0.048300326
134	0x3e6fbdce	0.23412248
135	0xbe75b8e8	-0.23996317
136	0x3e4876ea	0.19576612
137	0xbe1e405c	-0.15454239
138	0xbe6abc04	-0.22923285
139	0xbe4fadca	-0.20281139
140	0x3e4dc0ea	0.20093122
141	0xbd328108	-0.043580085
142	0xbda93248	-0.082615435
143	0x3df6456c	0.1202496
144	0x3dc0f5b4	0.09421864
145	0xbe09f9fe	-0.1347427
146	0x3cd37d30	0.02581653
147	0x3d863054	0.065521866
148	0x3e2ffdc6	0.1718665
149	0xbd6129e8	-0.054971606
150	0xbe430584	-0.19045073
151	0xbe7f8af2	-0.24955347
152	0xbe70532e	-0.2346923
153	0xbe306b26	-0.17228374
154	0x3d9909d8	0.07472581
155	0xbdacaaa4	-0.084309846
156	0x3de7d448	0.11319786
157	0xbe2237aa	-0.15841547
158	0xbe2005c8	-0.15627205
159	0x3c367b00	0.011137724
160	0xbe11587e	-0.14193913
161	0xbe3d5606	-0.18489847
162	0x3cb38d60	0.021917999
163	0xbe7dc344	-0.24781519
164	0xbe3e694c	-0.18594855
165	0xbd944a44	-0.072407275
166	0x3d841cf8	0.06450838
167	0x3cd0cc60	0.025488079
168	0xbe5aa4b6	-0.21351895
169	0x3e7aa344	0.24476343
170	0xbdd47644	-0.1037412
171	0xbd2e5ed0	-0.04257089
172	0xbdef05f8	-0.1167106
173	0xbe21780a	-0.15768448
174	0x3e5f286c	0.21792763
175	0xbe42ddc2	-0.19029906
176	0xbd816e08	-0.06319815
177	0x3c06edc0	0.008235395
178	0x3d112dd8	0.03544411
179	0x3d0b7110	0.03404337
180	0x3e2d4bcc	0.16923445
181	0x3e1ebc42	0.15501502
182	0x3e6c97ac	0.23104733
183	0x3e026b66	0.12736282
184	0x3d0a1180	0.033708096
185	0x3e63836c	0.22218102
186	0xbe0c5074	-0.13702565
187	0x3d9f3f7c	0.077757806
188	0xbe374cde	-0.17900416
189	0xbe0a46c4	-0.13503557
190	0xbca70bd0	-0.020391375
191	0xbe00ec0a	-0.12590042
192	0x3e766392	0.2406142
193	0xbe4a985c	-0.19784683
194	0x3d2d25e8	0.04227248
195	0xbe18c65e	-0.14919421
196	0x3cc64140	0.024201035
197	0xbe35289c	-0.17691272
198	0xbe6becf6	-0.23039612
199	0x3df18990	0.11793816
200	0x3e13f6b0	0.14449573
201	0x3dfba0a0	0.12286496
202	0x3b448800	0.002998829
203	0xbde65344	-0.112463504
204	0x3e48a3fe	0.19593808
205	0x3e571146	0.21002683
206	0x3d0afb50	0.033931077
207	0x3e66d05a	0.22540417
208	0x3d82b5c8	0.06382328
209	0x3e706598	0.23476255
210	0x3d57fcd8	0.052731365
211	0x3da2473c	0.07923743
212	0xbe44cc16	-0.19218478
213	0xbd24b280	-0.040209293
214	0x3df518ec	0.11967644
215	0x3e2ab584	0.16670805
216	0xbe775e5a	-0.24157086
217	0x3e717c14	0.23582488
218	0x3d038968	0.032113463
219	0x3e5603ae	0.20899841
220	0x3bf83cc0	0.0075756013
221	0x3daf5e9c	0.08562967
222	0xbe4f2560	-0.20229101
223	0x3df798ec	0.120897144
224	0xbd254358	-0.040347427
225	0xbdbf39e4	-0.09337214
226	0x3e472db8	0.19451034
227	0xbdc10330	-0.09424436
228	0x3e4f20b2	0.20227316
229	0xbe2def14	-0.16985732
230	0xbd4f60e8	-0.050629526
231	0xbe04d130	-0.12970424
232	0x3d99ddac	0.07512984
233	0x3cb15a90	0.021649629
234	0xbcb858b0	-0.022503227
235	0x3e32ec2a	0.17472902
236	0xbdfaa940	-0.12239313
237	0xbe683d14	-0.2267955
238	0xbd85379c	-0.06504747
239	0xbe2ef37a	-0.17085066
240	0x3e43ff0c	0.19140261
241	0x3e3336f8	0.17501438
242	0x3d368908	0.044564277
243	0x3e7fa3c2	0.24964812
244	0xbc970c50	-0.018438488
245	0x3e38f14a	0.18060794
246	0x3e3f0052	0.18652466
247	0xbca1e8b0	-0.019764274
248	0x3e31aa76	0.17350182
249	0x3c8fe9e0	0.017567575
250	0xbe139d86	-0.14415559
251	0xbd272750	-0.040808976
252	0xbe55aaae	-0.2086589
253	0x3e2479de	0.16062114
254	0x3e39ce6c	0.1814515
255	0xbe1ab3ba	-0.15107623

encoder_layer.self_attn.out_proj.bias f4 [16]
0	0x00000000	0.0
1	0x00000000	0.0
2	0x00000000	0.0
3	0x00000000	0.0
4	0x00000000	0.0
5	0x00000000	0.0
6	0x00000000	0.0
7	0x00000000	0.0
8	0x00000000	0.0
9	0x00000000	0.0
10	0x00000000	0.0
11	0x00000000	0.0
12	0x00000000	0.0
13	0x00000000	0.0
14	0x00000000	0.0
15	0x00000000	0.0

encoder_layer.linear1.weight f4 [512, 16]
0	0xbe3a6b1e	-0.18204924
1	0xbe5282fa	-0.20557776
2	0xbc2101c0	-0.009827077
3	0xbe284900	-0.16434097
4	0xbe4f0716	-0.20217547
5	0xbd9e1d60	-0.077204466
6	0xbdf42c18	-0.11922473
7	0x3e7a6b00	0.2445488
8	0x3e200326	0.15626201
9	0xbda1c2c0	-0.07898474
10	0xbcf84420	-0.030305922
11	0xbe715bd4	-0.23570186
12	0xbd814f08	-0.06313902
13	0xbd94f938	-0.07274097
14	0xbddd468c	-0.108044714
15	0xbe79eb16	-0.24406084
16	0xbd489a60	-0.04897535
17	0x3e016442	0.12635902
18	0x3dec4554	0.11536661
19	0x3db55cd0	0.08855593
20	0xbe47b152	-0.19501236
21	0x3d7c0bc0	0.061534643
22	0xbd9c6070	-0.076355815
23	0xbe540e4e	-0.20708582
24	0xbe1d166c	-0.15340585
25	0x3e7523b6	0.23939404
26	0x3dbf4404	0.09339145
27	0x3e089154	0.13336688
28	0xbdf6e308	-0.120550215
29	0xbda69f98	-0.08135909
30	0xbd85100c	-0.06497201
31	0xbe38d8c6	-0.18051443
32	0x3d6ef158	0.058335632
33	0x3e79cbd4	0.2439416
34	0x3d774a70	0.060373724
35	0xbe278a36	-0.16361317
36	0x3d798690	0.060919344
37	0xbe4aac90	-0.1979239
38	0x3dc4e7f0	0.09614551
39	0x3d78d0b8	0.060745925
40	0xbd73f9f8	-0.05956456
41	0xbe4d4514	-0.20045882
42	0xbd74ded0	-0.059782803
43	0xbe07e02c	-0.13269109
44	0x3e2b0abe	0.16703317
45	0xbddf9db8	-0.10918754
46	0x3d9bd478	0.076088846
47	0xbdec7d8c	-0.11547384
48	0xbcbd5330	-0.023110956
49	0xbda0db80	-0.07854366
50	0x3e68327e	0.22675511
51	0x3e74cf30	0.23907161
52	0xbe1f7722	-0.1557279
53	0x3cdc7f40	0.026916146
54	0xbe50be46	-0.20385084
55	0x3e1aa40e	0.15101644
56	0xbe301006	-0.17193612
57	0x3d245fa8	0.040130287
58	0x3e452c2a	0.19255129
59	0x3e78338a	0.2423841
60	0xbd0f3060	-0.034958243
61	0x3e50e9e2	0.20401719
62	0xbe0db2da	-0.13837758
63	0x3e2ec8fa	0.17068854
64	0xbdc31ed8	-0.09527367
65	0x3dd40400	0.103523254
66	0xbd33caf0	-0.04389471
67	0x3e705cd4	0.23472911
68	0x3e25cd8a	0.16191688
69	0xbe1dda3e	-0.15415284
70	0x3e45d55c	0.19319671
71	0x3d76cea8	0.060255677
72	0x3e08ba58	0.13352334
73	0x3e6ad062	0.22931054
74	0xbc834910	-0.01602605
75	0x3e5653a2	0.20930341
76	0x3e0281a4	0.12744766
77	0xbd925ecc	-0.07146987
78	0xbe4a5cb6	-0.19761929
79	0xbe7b548e	-0.24543974
80	0xbd5ebd60	-0.05437982
81	0x3deed9a8	0.116626084
82	0x3dded128	0.10879737
83	0xbe3a357e	-0.18184468
84	0xbc2f0f00	-0.010684729
85	0xbe6de306	-0.23231134
86	0xbd58f810	-0.052970946
87	0xbe6ca3ea	-0.23109403
88	0x3d9ad48c	0.07560071
89	0xbe07f138	-0.13275611
90	0xbc9db6e0	-0.01925224
91	0x3dba2544	0.09089139
92	0xbe657f76	-0.22411904
93	0xbd2ce960	-0.04221475
94	0x3e0b5264	0.13605648
95	0xbd679f78	-0.056548566
96	0xbe4a5524	-0.19759041
97	0x3e13d0b0	0.14435077
98	0x3da97bf8	0.08275598
99	0x3e3cd390	0.1844008
100	0x3dfc323c	0.12314269
101	0xbd1efe20	-0.03881657
102	0xbe6f8fe8	-0.2339474
103	0x3ab8af00	0.001409024
104	0xbd7dc598	-0.06195602
105	0x3d9f01a8	0.07763988
106	0xbe756710	-0.23965096
107	0x3dd75188	0.10513598
108	0xbe094eec	-0.13409013
109	0xbe4512d4	-0.19245464
110	0xbda3c638	-0.079967916
111	0x3d2e5c38	0.042568415
112	0xbe601310	-0.21882272
113	0x3d81e004	0.06341556
114	0xbe3b1178	-0.18268383
115	0x3e7df8cc	0.2480194
116	0xbe788a46	-0.24271497
117	0xbc68b300	-0.014202833
118	0xbe6708f0	-0.22562003
119	0x3d29ca28	0.041452557
120	0xbdfc5750	-0.12321341
121	0x3d482798	0.048865885
122	0xbddac5b0	-0.10682237
123	0xbe4d4904	-0.20047385
124	0xbe08a00c	-0.13342303
125	0xbe2c5f9a	-0.16833344
126	0x3dfc153c	0.12308738
127	0x3e067f00	0.13134384
128	0xbd615a58	-0.0550178
129	0x3db5bdfc	0.08874127
130	0x3e51fa84	0.2050572
131	0xbe07967c	-0.13240999
132	0x3e4aedae	0.1981723
133	0x3e4c0dfc	0.1992721
134	0x3e522a44	0.20523936
135	0xbe10ac04	-0.14128119
136	0xbdc5bd8c	-0.09655294
137	0xbd562708	-0.052283317
138	0xbdf28990	-0.11842644
139	0xbe02f08c	-0.12787074
140	0x3e34f9b2	0.17673376
141	0xbc8cb970	-0.017178267
142	0x3dc723ec	0.097236484
143	0xbd9f058c	-0.0776473
144	0x3e0aa978	0.1354121
145	0x3d4d4d08	0.05012229
146	0x3d7d0f98	0.06178245
147	0xbe57d686	-0.21077928
148	0x3e5b943c	0.21443266
149	0xbe6fb5f4	-0.23409253
150	0x3d1d9b68	0.038478285
151	0x3e1e3c3c	0.15452665
152	0xbcc64a10	-0.024205238
153	0x3e20fe6a	0.15722051
154	0xbe4f1260	-0.20221853
155	0xbd683758	-0.056693405
156	0x3e2443e8	0.16041529
157	0x3cfc23f0	0.030778855
158	0x3c3c2140	0.011482537
159	0xbdf192b4	-0.117955595
160	0xbdac697c	-0.08418557
161	0xbe454498	-0.19264448
162	0xbe148918	-0.14505422
163	0x3e7d206a	0.24719396
164	0xbe3c25f4	-0.18373853
165	0x3e373858	0.17892587
166	0xbe38a12e	-0.18030235
167	0x3d68d468	0.05684319
168	0xbe0fcf7e	-0.14043996
169	0x3e3eefb6	0.1864613
170	0xbc9b1bf0	-0.01893422
171	0xbd88bd00	-0.06676674
172	0x3d8c0a7c	0.06837937
173	0xbdd544d4	-0.104135185
174	0xbe196ef6	-0.14983734
175	0x3df29128	0.118440926
176	0x3d702068	0.058624655
177	0x3e7a1e56	0.24425635
178	0xbde0ecf8	-0.10982698
179	0x3d2f31d0	0.042772114
180	0x3e1a7356	0.1508306
181	0x3e1646f4	0.14675504
182	0xbe079bc0	-0.13243008
183	0x3e5c92ac	0.21540326
184	0x3e3d8bfc	0.18510431
185	0x3e054146	0.13013181
186	0xbd91d0d0	-0.07119906
187	0x3e085fb8	0.13317764
188	0xbe383a3c	-0.17990965
189	0xbd5a6868	-0.053322226
190	0x3e7a71a6	0.24457416
191	0xbe096a32	-0.13419417
192	0xbbc6bd40	-0.006065041
193	0xbde18490	-0.110116124
194	0x3e0c9e86	0.13732347
195	0xbd886214	-0.06659332
196	0x3e4626e0	0.19350767
197	0xbe406850	-0.18789792
198	0x3def055c	0.11670944
199	0x3e725d98	0.23668516
200	0xbd5f0640	-0.05444932
201	0x3e149b0e	0.14512274
202	0xbc1f8e20	-0.009738475
203	0xbe614c84	-0.22001845
204	0x3df2e544	0.11860135
205	0x3ab29400	0.001362443
206	0x3e325992	0.17416981
207	0xbd8141c8	-0.06311375
208	0x3e0d96da	0.13827077
209	0xbe28d6fc	-0.1648826
210	0x3e72e800	0.23721313
211	0x3d959938	0.07304615
212	0xbe5513c2	-0.20808318
213	0xbdb00ec8	-0.08596569
214	0xbe1f16fc	-0.15536112
215	0xbdaa3e78	-0.08312696
216	0x3cbec4c0	0.023287177
217	0xbb1b2180	-0.002367109
218	0x3e1a685e	0.15078875
219	0xbe64f918	-0.22360647
220	0x3d4ba408	0.04971698
221	0x3e593c68	0.2121445
222	0x3e4be86c	0.1991288
223	0x3e2cb5d2	0.16866234
224	0x3e164b76	0.14677224
225	0xbe0410fa	-0.12897101
226	0x3e201836	0.15634236
227	0xbe6acf04	-0.22930533
228	0xbe34933c	-0.1763429
229	0xbe020f9c	-0.12701267
230	0x3da47f84	0.08032134
231	0xbe6fcabe	-0.23417184
232	0xbd0e3128	-0.034714848
233	0xbe437e12	-0.19091061
234	0x3df05ac4	0.11736062
235	0xbe027142	-0.12738517
236	0x3c948460	0.018129528
237	0x3dd0c238	0.10193294
238	0xbcb34f80	-0.021888494
239	0xbdd6e810	-0.10493481
240	0xbdaa3970	-0.083117366
241	0x3e7f6d92	0.24944142
242	0x3e419610	0.189049
243	0xbd8ee834	-0.06977883
244	0x3dbee3c0	0.093207836
245	0xbc3e4da0	-0.011615187
246	0x3dd4907c	0.10379121
247	0x3e6b01c0	0.22949886
248	0xbe685412	-0.2268832
249	0x3e5e8a74	0.21732503
250	0xbe3c6e02	-0.1840134
251	0xbd1fbf08	-0.03900054
252	0xbdd38218	-0.10327548
253	0x3db09d98	0.086238086
254	0xbe7d685a	-0.24746838
255	0x3dd5bef8	0.10436815

encoder_layer.linear1.bias f4 [512]
0	0xbe1c4916	-0.15262255
1	0xbe0de1d4	-0.13855678
2	0xbe0ba3c6	-0.13636693
3	0x3e1060b6	0.14099392
4	0xbd680be0	-0.05665195
5	0x3deebd9c	0.11657259
6	0x3e7b0982	0.24515346
7	0x3e613438	0.21992576
8	0x3e2dba00	0.16965485
9	0xbe7860a2	-0.24255612
10	0xbdf5ec64	-0.120079786
11	0x3e30ed94	0.17278129
12	0xbdc65e6c	-0.09685978
13	0xbe3f44e2	-0.1867862
14	0xbe5bd3b8	-0.21467483
15	0xbd3231f8	-0.043504685
16	0x3e223ae4	0.15842777
17	0xbd67d850	-0.056602776
18	0x3e793a38	0.24338615
19	0xbc2798e0	-0.010229319
20	0xbdbaab40	-0.091146946
21	0xbd0567a8	-0.032569557
22	0xbe650724	-0.22366005
23	0xbce10d00	-0.02747202
24	0xbdb054a8	-0.08609897
25	0xbcf34250	-0.029694706
26	0xba880d00	-0.0010379851
27	0x3e51c020	0.20483446
28	0xbdb93f74	-0.09045306
29	0x3e6ac516	0.22926745
30	0xbc97cdc0	-0.018530726
31	0xbdbe0498	-0.0927822
32	0x3de15924	0.1100333
33	0xbda6831c	-0.08130476
34	0x3e7bf468	0.24604952
35	0x3e0c2c18	0.13688695
36	0xbe084b14	-0.1330989
37	0x3ce56140	0.028000474
38	0x3dd09ed8	0.10186547
39	0xbd5cf7a8	-0.05394712
40	0x3d7ad868	0.061241537
41	0x3e0b088c	0.13577479
42	0x3cc28a00	0.023747444
43	0x3e1ddf70	0.15417266
44	0x3e1ff8e2	0.15622285
45	0xbe6d8512	-0.23195294
46	0x3d4aafb0	0.049483955
47	0xbd8a1fc4	-0.0674434
48	0x3e3e71d8	0.18598115
49	0x3ddc85a0	0.107676744
50	0xbe31f774	-0.17379552
51	0x3dc05ce4	0.093927175
52	0xbe165994	-0.14682609
53	0x3e036ed4	0.12835246
54	0xbe5319aa	-0.20615259
55	0x3e12348e	0.1427786
56	0x3e4bc0fa	0.19897833
57	0xbc4073c0	-0.011746347
58	0xbd23ac98	-0.03995952
59	0xbe3bb2b2	-0.18329886
60	0x3e60eba0	0.21964884
61	0x3df6d72c	0.120527595
62	0x3e055ef0	0.13024497
63	0xbe773c50	-0.24144101
64	0xbe4f8e90	-0.20269227
65	0xbe0ea0be	-0.13928506
66	0xbc577e20	-0.013152629
67	0x3e677328	0.22602522
68	0xbe2f16c2	-0.17098525
69	0x3dcf2f04	0.101163894
70	0xbe0704f0	-0.13185477
71	0x3ba62400	0.0050702095
72	0xbdd8ccf4	-0.10585967
73	0xbd882f0c	-0.066495985
74	0x3e7ff3d8	0.24995363
75	0xba9a6c00	-0.0011781454
76	0xbddb1168	-0.10696679
77	0x3d89a8e4	0.067216665
78	0xbe79f6f4	-0.24410611
79	0x3e0c71b2	0.13715246
80	0xbd743ad8	-0.05962643
81	0x3e55f988	0.2089597
82	0xbe2c7d8c	-0.16844767
83	0xbe0a3ece	-0.1350052
84	0xbccc3820	-0.024929106
85	0xbc745b00	-0.014914274
86	0xbcc37d60	-0.023863494
87	0x3ddb4800	0.10707092
88	0xbe58b048	-0.21160996
89	0xbda12178	-0.07867712
90	0x3e618fb2	0.22027472
91	0xbcda1560	-0.02662152
92	0xbe0125f6	-0.12612137
93	0xbe0a44ca	-0.13502803
94	0x3d3ab888	0.04558614
95	0x3d18f278	0.03734061
96	0x3e0b90a2	0.13629392
97	0x3c66fd20	0.014098436
98	0x3db45980	0.08806133
99	0x3e522324	0.20521218
100	0x3c3039c0	0.010755956
101	0x3e63f20e	0.22260305
102	0xbd1170a8	-0.035507828
103	0xbd85b8f0	-0.06529415
104	0x3e3f47fc	0.18679804
105	0xbd9a8dd8	-0.07546586
106	0x3d4b9f60	0.04971254
107	0xbde79cd0	-0.113092065
108	0xbe20b70c	-0.15694827
109	0xbe386c2a	-0.18010011
110	0xbdf21090	-0.11819565
111	0x3dbca040	0.09210253
112	0x3e41763e	0.18892762
113	0x3d25ab88	0.040446788
114	0xbda129cc	-0.078693
115	0x3d61f1b8	0.05516216
116	0xbe07642c	-0.13221806
117	0x3e18f976	0.14938912
118	0xbe69fc9e	-0.22850272
119	0xbe0bf908	-0.13669217
120	0xbe47af3e	-0.19500443
121	0x3e51473e	0.20437333
122	0x3e5d2f1c	0.21600002
123	0xbce70920	-0.028202593
124	0x3e116e88	0.1420232
125	0x3e0764f4	0.13222104
126	0x3de67ed8	0.11254662
127	0x3ded5b6c	0.11589703
128	0xbe34dc8a	-0.17662254
129	0x3bd7e500	0.006588578
130	0x3dc9eab8	0.09859222
131	0xbdaad538	-0.083414495
132	0x3e6f87e4	0.23391682
133	0xbe19520e	-0.14972708
134	0x3d461cf0	0.04836744
135	0xbdcd876c	-0.10035595
136	0x3d3c4778	0.045966595
137	0x3ca64e80	0.020301104
138	0x3d957418	0.07297534
139	0x3df2eaa0	0.118611574
140	0xbdf340d0	-0.118775964
141	0x3d96f048	0.07370049
142	0xbdd60c28	-0.10451537
143	0x3d5f61e0	0.0545367
144	0x3e3e68b0	0.18594623
145	0x3e573d42	0.21019462
146	0x3d654b38	0.055979937
147	0x3e6a1464	0.22859341
148	0xbe46db92	-0.19419697
149	0xbd979d8c	-0.074030966
150	0x3e4aae18	0.19792974
151	0xbe719d20	-0.23595095
152	0xbd4fa5a0	-0.05069506
153	0x3e201d1e	0.15636107
154	0x3d368000	0.044555664
155	0xbe3ec204	-0.18628699
156	0x3def7c40	0.11693621
157	0x3dcd2d94	0.10018459
158	0xbe658d3e	-0.22417161
159	0xbc5d63c0	-0.013512552
160	0x3e57e198	0.21082151
161	0x3e0f8db6	0.14018902
162	0x3b866d80	0.004102409
163	0x3cab5040	0.02091229
164	0x3e32610e	0.17419836
165	0x3e51021c	0.20410961
166	0x3ddcd18c	0.107821554
167	0x3e7de8e2	0.24795869
168	0xbdbc7120	-0.092012644
169	0x3d824c08	0.06362158
170	0xbe5af0e6	-0.21380958
171	0xbd9ac1e8	-0.07556516
172	0x3e74d544	0.2390948
173	0xbe254c08	-0.16142285
174	0x3d294cb8	0.04133293
175	0x3e0659ba	0.13120165
176	0xbe764e5e	-0.24053332
177	0xbdd995f8	-0.106243074
178	0x3e4c1272	0.19928911
179	0xbe24ed56	-0.16106161
180	0xbe1f253e	-0.1554155
181	0xbe1e4588	-0.15456212
182	0xbd982d28	-0.07430488
183	0xbdf21144	-0.118196994
184	0x3d016778	0.031592816
185	0x3e180d72	0.14848879
186	0x3d1ebb20	0.038752675
187	0xbe2a6e32	-0.16643599
188	0xbe12ddc6	-0.14342412
189	0xbd811308	-0.06302458
190	0x3ce90380	0.028444052
191	0xbccf7860	-0.025325954
192	0xbdf2c150	-0.11853278
193	0x3e315eb0	0.17321277
194	0xbb809d80	-0.0039250255
195	0xbda3162c	-0.07963213
196	0x3e69c3b4	0.22828561
197	0x3d7d9d10	0.061917365
198	0xbcb58d50	-0.02216211
199	0x3d37bd68	0.044858366
200	0xbd82d550	-0.063883424
201	0xbdc8bafc	-0.098012894
202	0x3da94aac	0.08266196
203	0xbe1ae312	-0.15125683
204	0xbde5a5c4	-0.11213258
205	0x3da51b98	0.08061904
206	0xbc561de0	-0.013068646
207	0x3da02108	0.078188
208	0xbe758fb0	-0.23980594
209	0x3e2e674e	0.17031595
210	0xbe0aa2e0	-0.13538694
211	0xbdbd9bac	-0.09258208
212	0x3dac9ab8	0.08427948
213	0x3d406520	0.04697144
214	0x3c3b1f60	0.011421055
215	0xbe4b358a	-0.19844642
216	0x3d955ed0	0.07293475
217	0xbe78aa44	-0.24283701
218	0xbe767b6c	-0.24070519
219	0xbe21ea06	-0.15811929
220	0xbe7de1f0	-0.2479322
221	0x3db70390	0.08936226
222	0x3ce84760	0.028354347
223	0x3e5404fc	0.20705026
224	0x3ccddf70	0.025130957
225	0xbda64aa0	-0.08119702
226	0x3e2a1e9a	0.16613236
227	0xbdcd70b0	-0.10031259
228	0x3cd75ff0	0.026290864
229	0xbcb4c2d0	-0.02206555
230	0xbe3a68f6	-0.18204102
231	0x3e601988	0.2188474
232	0x3e6747ba	0.22585955
233	0xbe56cac4	-0.20975786
234	0xbdf718b4	-0.120652586
235	0x3d38c138	0.045106143
236	0xbe1428e4	-0.14468724
237	0x3dff10cc	0.124543756
238	0x3e072700	0.13198471
239	0x3c965620	0.018351614
240	0xbda32bd0	-0.07967341
241	0xbddb9c4c	-0.10723171
242	0xbdec367c	-0.115338296
243	0xbde04bfc	-0.10951993
244	0xbde1ab48	-0.110189974
245	0x3d8e55dc	0.0694997
246	0x3cac5100	0.021034718
247	0x3dbf74cc	0.09348449
248	0x3e5c0eb2	0.21489981
249	0x3ae7f400	0.0017696619
250	0xbe16a63a	-0.14711848
251	0x3df55004	0.119781524
252	0xbe17c4fc	-0.14821237
253	0xbe44b630	-0.19210124
254	0xbe02b762	-0.12765267
255	0x3dbdc054	0.09265199

encoder_layer.linear2.weight f4 [16, 512]
0	0xbc53dda8	-0.012931265
1	0x39b18d80	0.00033865497
2	0xbc5dcfec	-0.013538342
3	0x3ccdd526	0.025126051
4	0xbcf7d450	-0.030252606
5	0x3d123f19	0.035704706
6	0xbcd40e7d	-0.025885815
7	0x3d118871	0.03553051
8	0xbc6e199a	-0.014532471
9	0x3aeded20	0.0018152334
10	0xbcf23b58	-0.029569313
11	0xbc1c2344	-0.009529892
12	0x3c15f94c	0.009153675
13	0xbcd98fc0	-0.026557803
14	0xbca22d77	-0.01979707
15	0x3c952c6a	0.018209655
16	0x3d120ef9	0.03565881
17	0x3cf86c42	0.030325059
18	0xbcdbc6c9	-0.026828187
19	0x3d0ec427	0.034855034
20	0x3ce01cfe	0.027357575
21	0x3d1f1fbd	0.038848627
22	0x3c594c34	0.013262797
23	0x3ce717ae	0.028209534
24	0xbb4ab850	-0.0030932613
25	0x3c52ac14	0.012858409
26	0x3d32c8ff	0.043648716
27	0xbceae360	-0.028672874
28	0xbd116b69	-0.035502825
29	0x3d06a45f	0.0328716
30	0x3cdc0cc6	0.02686156
31	0x3bb43248	0.005499158
32	0xbd14c0e0	-0.036316752
33	0xbcb75f9d	-0.02238446
34	0xbbd60a10	-0.0065319613
35	0x3cf7caea	0.030248124
36	0x3d165147	0.036698606
37	0x3cd4e236	0.025986772
38	0x3cec46fe	0.028842445
39	0x3b46bd50	0.0030325241
40	0xbc0520c8	-0.008125491
41	0x3cbb0032	0.022827242
42	0xbc797aba	-0.015227014
43	0x3b0aae10	0.0021160878
44	0x3c730118	0.014831804
45	0xbd0afc74	-0.033932164
46	0xbd02e9ef	-0.031961378
47	0xbd1e9a93	-0.038721632
48	0x3c1f3668	0.009717561
49	0xbce98c71	-0.02850935
50	0x3aaafcc0	0.0013045296
51	0xbd0f86c2	-0.035040624
52	0x3c9b1d8e	0.018934991
53	0xbce5f098	-0.028068826
54	0x3c798614	0.015229721
55	0xbcfacca8	-0.030615166
56	0x3c726e64	0.014796827
57	0xbc3925d0	-0.011300519
58	0x3d24513f	0.040116545
59	0x3cf01fe6	0.029312085
60	0xbb81a8d8	-0.0039568953
61	0x3d00beff	0.031432148
62	0x3c88e1e4	0.016709276
63	0x3d075e73	0.03304906
64	0xbcf001a8	-0.029297665
65	0xb91c6200	-0.00014913827
66	0xbd0ef17a	-0.03489826
67	0xbd1f8120	-0.038941503
68	0xbc84eb0f	-0.016225366
69	0xbd2c5374	-0.042071775
70	0x3b9d0850	0.0047922507
71	0xbc02f264	-0.007992361
72	0xbb18f210	-0.002333764
73	0xbc0e3460	-0.008679479
74	0xbbad62d0	-0.0052913204
75	0x3d1bfffb	0.03808592
76	0xbd091650	-0.033468544
77	0x3c10d600	0.008840084
78	0x3c1b5fcc	0.009483289
79	0x3d017dad	0.031613994
80	0xbce20070	-0.0275881
81	0xbd1e5d3d	-0.038663138
82	0xbaeddc80	-0.0018147379
83	0xbd125d46	-0.035733484
84	0xbbd19c18	-0.0063967817
85	0xbb83a580	-0.004017532
86	0xbce70671	-0.028201314
87	0x3d0bc75f	0.034125682
88	0x3b2759f0	0.0025535785
89	0x3d1fe9fd	0.039041508
90	0x3ce9fca2	0.028562848
91	0xbcd4f682	-0.02599645
92	0xbc4fc9ac	-0.01268236
93	0xbd0d9f1f	-0.034575578
94	0xbca7a151	-0.020462664
95	0x3ca42d66	0.020041179
96	0x3cbd58fe	0.023113724
97	0x3ce0fbb6	0.027463775
98	0xbd2e91fa	-0.042619683
99	0xbc12eedc	-0.008968081
100	0xbc7a9fb0	-0.0152968615
101	0xbc4b17fc	-0.012395855
102	0x3d2e0567	0.04248562
103	0xbbbad8d8	-0.0057021193
104	0xbc50bab4	-0.012739826
105	0x3d212263	0.039339434
106	0x399a0a80	0.00029380992
107	0x3d0160e5	0.031586546
108	0xbd05485b	-0.032539707
109	0xbb489510	-0.0030606426
110	0xbd1ff2ae	-0.039049797
111	0x3ba421e0	0.005008921
112	0x3d1e95e9	0.038717184
113	0xbbaf1510	-0.005343087
114	0x3d05d245	0.03267123
115	0xbb958750	-0.0045632496
116	0x3b7cc4d0	0.0038569458
117	0xbc850fda	-0.01624291
118	0x3d0386e5	0.032111067
119	0xbca15654	-0.019694485
120	0x3c62be14	0.0138392635
121	0x3c2f1628	0.010686435
122	0x3c642504	0.013924841
123	0xbc5c369e	-0.013440756
124	0x3d0a7403	0.033802044
125	0x3c34bccc	0.011031341
126	0xbc1bc9d8	-0.0095085725
127	0x3ca47f62	0.020080272
128	0x3cb6a062	0.022293273
129	0xbc77ba5a	-0.015120113
130	0xbc1fb7dc	-0.009748425
131	0xbba7fc60	-0.005126521
132	0xbcb8fdb9	-0.022581922
133	0xbb2d0660	-0.0026401505
134	0x3c926464	0.017870136
135	0x3c0c68a4	0.00856987
136	0x3c502e48	0.012706347
137	0xbc4ceedc	-0.01250812
138	0xbceded81	-0.029043915
139	0x3cf13a06	0.029446613
140	0x3b60cfc0	0.0034303516
141	0x3c8a73aa	0.016900856
142	0x3c887326	0.01665647
143	0x3b91f768	0.004454542
144	0xbc62738e	-0.013821496
145	0xbc6e609e	-0.0145494025
146	0xbc0cc6e0	-0.008592337
147	0x3c565a74	0.013083089
148	0xbc12e598	-0.008965872
149	0x3b746490	0.0037291385
150	0xbd2fbd0b	-0.042904895
151	0x3baf42c0	0.0053485334
152	0x3d11355d	0.03545128
153	0xbb4732a0	-0.0030395165
154	0xbc27fbe4	-0.0102529265
155	0xbd281678	-0.041037053
156	0xbcaf8c26	-0.021429133
157	0xbcfc7538	-0.030817613
158	0xbc7cae16	-0.015422365
159	0x3d1d1947	0.038354184
160	0x3d10804f	0.035278615
161	0x3cc0b706	0.023524772
162	0xbcd3047e	-0.025758978
163	0x3cdaed22	0.026724402
164	0xbb6993e0	-0.003564112
165	0x3a682200	0.0008855164
166	0xbd03fba5	-0.03222241
167	0x3cfff982	0.031246904
168	0x3c99f4a6	0.018793415
169	0xbc313504	-0.010815863
170	0x3bd56440	0.006512195
171	0xbb8cfc68	-0.00430255
172	0x3d2c4b97	0.042064276
173	0xbd2d8f02	-0.04237271
174	0x3ccfeb6e	0.025380816
175	0xbaca1900	-0.0015418828
176	0x3b882ac8	0.0041554905
177	0xbd024f38	-0.03181383
178	0x3c3bf60c	0.011472236
179	0xba0e4a00	-0.0005427897
180	0xbcbcd69a	-0.023051549
181	0xbd019b35	-0.031642158
182	0xbbc42da0	-0.0059868842
183	0xbc9daf2e	-0.019248571
184	0xbd30e105	-0.043183345
185	0x3c3c7570	0.011502609
186	0xbc9822fa	-0.018571366
187	0xbca7c5f7	-0.02048014
188	0x3d0d8379	0.03454921
189	0x3c975e36	0.01847754
190	0x3bb5fca8	0.0055538006
191	0x3c5a659c	0.01332989
192	0xbb9cbab0	-0.004782997
193	0x3d022caf	0.031780895
194	0xbcd706d9	-0.026248382
195	0x3d0bdbc7	0.034145143
196	0x3d27914d	0.040910054
197	0xbd1bd1a4	-0.038041726
198	0x3c0c80b4	0.008575607
199	0xbcb58de5	-0.022162387
200	0x3c2227d0	0.009897187
201	0x3c950e6c	0.018195353
202	0x3ba7dda0	0.0051228553
203	0xbba5ba30	-0.0050575957
204	0xbd07fec1	-0.033201937
205	0xbcd8314d	-0.026390696
206	0xbc8b6904	-0.017017849
207	0x3d120d3f	0.035657164
208	0xbd04387a	-0.032280423
209	0xbb93e458	-0.0045133047
210	0xbcd4cb6e	-0.02597591
211	0xbd2178d6	-0.03942188
212	0x3cbf0112	0.02331594
213	0x3ca556de	0.020183023
214	0x3d05baef	0.032648977
215	0x3d25fc6b	0.040523928
216	0x3d054c6f	0.032543596
217	0x3c51058c	0.01275767
218	0x3c9a659a	0.018847276
219	0x3b231b90	0.0024888255
220	0x3b808db0	0.0039231405
221	0xbc6723f4	-0.014107693
222	0x3b2d4bb0	0.0026442818
223	0x3a4f2340	0.0007901676
224	0xbcfbfc48	-0.030759946
225	0xbaa261a0	-0.0012388714
226	0xbc3f9bbc	-0.011694845
227	0xbc810d36	-0.01575337
228	0xbb7e9a40	-0.0038849264
229	0x3c7cfc9c	0.015441086
230	0xbcee223a	-0.029069055
231	0x3cb6fb22	0.022336546
232	0xbd1265be	-0.03574156
233	0xbc5edd00	-0.013602495
234	0x3c055154	0.008137066
235	0x3cbda056	0.023147743
236	0xbd204490	-0.039127886
237	0xbb788430	-0.0037920587
238	0xbd110936	-0.035409175
239	0xbc9390ac	-0.01801332
240	0xbbb9ed18	-0.0056740157
241	0xbc05ab0c	-0.0081584565
242	0xbbae5250	-0.005319871
243	0x3d267935	0.040642936
244	0xbc4740a0	-0.012161404
245	0x3d1f12c1	0.038836244
246	0xbd085d8f	-0.03329235
247	0xbc198f7c	-0.009372588
248	0x3d1b586f	0.037926134
249	0x3c09d2f4	0.008412112
250	0x3d14c689	0.03632215
251	0xbc82d157	-0.015968962
252	0xbd186d35	-0.037213523
253	0x3cf2708e	0.029594686
254	0xbd0bbacf	-0.0341137
255	0xbce38fff	-0.027778624

encoder_layer.linear2.bias f4 [16]
0	0x3d0c094f	0.034188565
1	0x3b988528	0.0046545453
2	0xbca05a66	-0.019574355
3	0x3cdc92f2	0.026925538
4	0x3c7065b8	0.014672689
5	0x3cc41e4a	0.023940224
6	0xbd1efa5c	-0.03881298
7	0xbca4ee8a	-0.020133276
8	0xbcae969b	-0.021312049
9	0xbd1784d4	-0.03699191
10	0x3c545a64	0.012961004
11	0x3bbcd420	0.005762592
12	0x3c9e7256	0.019341629
13	0xbcf1554a	-0.029459614
14	0xbd007dde	-0.031370036
15	0xbc46b06c	-0.012127023

encoder_layer.norm1.weight f4 [16]
0	0x3f800000	1.0
1	0x3f800000	1.0
2	0x3f800000	1.0
3	0x3f800000	1.0
4	0x3f800000	1.0
5	0x3f800000	1.0
6	0x3f800000	1.0
7	0x3f800000	1.0
8	0x3f800000	1.0
9	0x3f800000	1.0
10	0x3f800000	1.0
11	0x3f800000	1.0
12	0x3f800000	1.0
13	0x3f800000	1.0
14	0x3f800000	1.0
15	0x3f800000	1.0

encoder_layer.norm1.bias f4 [16]
0	0x00000000	0.0
1	0x00000000	0.0
2	0x00000000	0.0
3	0x00000000	0.0
4	0x00000000	0.0
5	0x00000000	0.0
6	0x00000000	0.0
7	0x00000000	0.0
8	0x00000000	0.0
9	0x00000000	0.0
10	0x00000000	0.0
11	0x00000000	0.0
12	0x00000000	0.0
13	0x00000000	0.0
14	0x00000000	0.0
15	0x00000000	0.0

encoder_layer.norm2.weight f4 [16]
0	0x3f800000	1.0
1	0x3f800000	1.0
2	0x3f800000	1.0
3	0x3f800000	1.0
4	0x3f800000	1.0
5	0x3f800000	1.0
6	0x3f800000	1.0
7	0x3f800000	1.0
8	0x3f800000	1.0
9	0x3f800000	1.0
10	0x3f800000	1.0
11	0x3f800000	1.0
12	0x3f800000	1.0
13	0x3f800000	1.0
14	0x3f800000	1.0
15	0x3f800000	1.0

encoder_layer.norm2.bias f4 [16]
0	0x00000000	0.0
1	0x00000000	0.0
2	0x00000000	0.0
3	0x00000000	0.0
4	0x00000000	0.0
5	0x00000000	0.0
6	0x00000000	0.0
7	0x00000000	0.0
8	0x00000000	0.0
9	0x00000000	0.0
10	0x00000000	0.0
11	0x00000000	0.0
12	0x00000000	0.0
13	0x00000000	0.0
14	0x00000000	0.0
15	0x00000000	0.0

transformer_encoder.layers.0.self_attn.in_proj_weight f4 [48, 16]
0	0x3d9ab782	0.075545326
1	0x3e2c193a	0.16806498
2	0x3b410b01	0.0029456022
3	0x3d4cd8f5	0.050011594
4	0x3e4bc09e	0.19897696
5	0xbb8870bc	-0.0041638296
6	0x3e82de41	0.2556019
7	0xbdb485fe	-0.088146195
8	0x3ea33faf	0.31884524
9	0xbe19ebbd	-0.15031333
10	0x3e4c89e1	0.19974472
11	0xbd2ffaaa	-0.04296366
12	0x3dae8586	0.08521561
13	0xbd64dad1	-0.055872742
14	0x3d8572d0	0.06516039
15	0xbe258173	-0.16162662
16	0x3d9f5a68	0.077809155
17	0xbb74aa03	-0.003733278
18	0x3da3b97e	0.07994364
19	0xbe3a36c1	-0.1818495
20	0x3e3c744b	0.18403737
21	0xbdec6e0d	-0.11544428
22	0xbe133e4f	-0.14379238
23	0x3e2d2bff	0.16911314
24	0xbe65a2ec	-0.22425431
25	0xbcc8d009	-0.024513261
26	0xbd9f75ff	-0.07786178
27	0xbe86e44f	-0.2634606
28	0x3d973998	0.07384032
29	0xbe63aee2	-0.22234681
30	0x3e71bf84	0.23608214
31	0x3d3af815	0.045646746
32	0xbdac13fc	-0.08402249
33	0xbe3cd3ad	-0.18440123
34	0x3d041205	0.032243747
35	0xbd1c45d2	-0.038152523
36	0xbe7c4f77	-0.24639688
37	0x3d69849f	0.057011243
38	0xbd9d03f7	-0.07666772
39	0x3e7472d2	0.23871925
40	0xbe72b844	-0.23703104
41	0xbd83be40	-0.06432772
42	0xbd074b11	-0.033030573
43	0x3dd6be56	0.104855224
44	0xbe3c0be3	-0.1836391
45	0xbaccbab1	-0.0015619603
46	0xbdddf2d8	-0.108373344
47	0xbbf3e7b9	-0.007443395
48	0xbe0d0661	-0.13771965
49	0x3e5a97cb	0.21346967
50	0x3e91a341	0.28444865
51	0xbe57aabe	-0.21061227
52	0x3e7b4595	0.24538262
53	0x3e6610b4	0.22467309
54	0xbd6e4734	-0.058173373
55	0xbe2b2de9	-0.16716732
56	0x3d8c208c	0.06842145
57	0x3dae838c	0.08521184
58	0xbe6f94a4	-0.23396546
59	0x3de47aac	0.1115621
60	0x3ce794c1	0.028269174
61	0x3e8a0f4c	0.26964796
62	0x3dd3d867	0.1034401
63	0x3ea409e7	0.32038805
64	0x3e553b00	0.20823288
65	0xbe4eccaa	-0.2019526
66	0xbe61453f	-0.21999072
67	0xbe81619a	-0.25269777
68	0xbe8d74ed	-0.2762827
69	0xbe4b80de	-0.19873378
70	0x3e007920	0.12546206
71	0xbe0522fa	-0.13001624
72	0x3e832a95	0.25618425
73	0x3e337212	0.17523983
74	0x3bba19e8	0.005679358
75	0x3e5c1ae3	0.21494631
76	0xbe1b1c1c	-0.15147442
77	0xbd7ae3b5	-0.061252315
78	0xbe828b7f	-0.25497052
79	0x3e0bbb84	0.1364575
80	0x3de1075e	0.10987733
81	0xbc53789f	-0.012907176
82	0x3d5671e4	0.05235471
83	0xbe97f277	-0.29677173
84	0x3cc1787a	0.023617018
85	0x3b892343	0.0041851117
86	0x3e531a90	0.20615602
87	0x3e95efe8	0.29284596
88	0x3d9e7679	0.077374406
89	0xbe803832	-0.25042874
90	0xbde9a64c	-0.11408672
91	0x3d8850df	0.0665605
92	0xbe219dd7	-0.15782867
93	0xbe0a32f3	-0.13495998
94	0xbe8a7d18	-0.27048564
95	0x3e81ec8a	0.25375777
96	0x3e08d91b	0.13364069
97	0x3d8fbac8	0.070180476
98	0xbcb90a42	-0.0225879
99	0x3e6e2112	0.23254803
100	0xbd23ee98	-0.040022463
101	0xbbf26ad0	-0.007397987
102	0xbd8d1628	-0.068889916
103	0xbdb0e81b	-0.086380206
104	0x3e99263f	0.29911992
105	0xbc886b6d	-0.016652787
106	0xbe96ad9c	-0.29429328
107	0xbe91743b	-0.2840899
108	0x3dce49d8	0.10072678
109	0xbdbbecb1	-0.09176005
110	0x3ea32436	0.31863564
111	0xbe6e1b06	-0.23252496
112	0xbe897cbb	-0.26852974
113	0xbe237d42	-0.15965751
114	0xbe867df1	-0.2626796
115	0x3e8966e9	0.26836327
116	0x3e8594ae	0.26089996
117	0xbe799483	-0.24373059
118	0x3e1e858a	0.15480629
119	0x3d437cfe	0.047726624
120	0x3d188946	0.03724029
121	0x3e08cd9c	0.13359684
122	0x3cf7c335	0.03024445
123	0xbd184ca5	-0.03718247
124	0xbea53e60	-0.3227415
125	0xbdec9f08	-0.1155377
126	0xbb70bb05	-0.0036732566
127	0xbd72f54d	-0.05931597
128	0xbe25a507	-0.16176234
129	0x3e27a8f8	0.1637305
130	0xbd41de4c	-0.04733114
131	0xbd8c5128	-0.06851417
132	0xbe81bd41	-0.25339702
133	0xbde0b47a	-0.10971923
134	0x3e7dc26d	0.24781199
135	0x3c6a399c	0.014295962
136	0x3e25e031	0.16198803
137	0xbe444280	-0.19165993
138	0xbe6716ef	-0.22567342
139	0x3e7a44ea	0.24440351
140	0x3e44bbe4	0.192123
141	0x3e8fb52d	0.28067914
142	0x3e60e6e3	0.21963076
143	0x3dc09334	0.09403077
144	0xbd70fcfc	-0.058835015
145	0xbbf86a97	-0.007581066
146	0x3db87813	0.09007277
147	0x3e8072c8	0.2508757
148	0x3df5a116	0.11993615
149	0xbe45777a	-0.19283858
150	0x3e0119ad	0.12607451
151	0x3d6a140d	0.05714803
152	0x3e83feb9	0.25780275
153	0x3e14b6c1	0.1452284
154	0x3d689010	0.056778014
155	0xbe68c799	-0.2273239
156	0xbe077d22	-0.13231328
157	0xbdfef4b0	-0.12449014
158	0xbe58fd0d	-0.21190281
159	0x3e9c8f4f	0.30578086
160	0xbd80d2e1	-0.06290222
161	0xbe898186	-0.2685663
162	0x3def0324	0.11670521
163	0xbde96b91	-0.1139747
164	0xbe0416e2	-0.12899354
165	0x3b9fd7da	0.0048780264
166	0x3daf04d4	0.08545843
167	0xbdc61ec7	-0.09673839
168	0x3cc257ff	0.0237236
169	0x3e4a4eb4	0.19756585
170	0x3e2c04ff	0.16798781
171	0xbe61a92e	-0.22037193
172	0xbe9de504	-0.30838788
173	0xbe6be7d5	-0.23037656
174	0x3e18ae6c	0.14910287
175	0x3e946309	0.28981808
176	0x3dd39358	0.10330838
177	0xbe3e70ee	-0.18597767
178	0x3d23e840	0.040016413
179	0x3e9a8cde	0.30185598
180	0xbe208877	-0.15677057
181	0xbe266ac8	-0.16251671
182	0xbe9ec54b	-0.31009898
183	0xbdbc1b6d	-0.091849186
184	0x3d4b3b03	0.049616825
185	0xbd58de87	-0.052946594
186	0xbe47d078	-0.19513118
187	0xbe4068b7	-0.18789946
188	0xbd856359	-0.0651309
189	0x3e4e72c6	0.2016097
190	0xbe0153b0	-0.1262958
191	0x3d857401	0.065162666
192	0xbe96c068	-0.2944367
193	0x3e4f6560	0.20253515
194	0xbc40f32d	-0.011776728
195	0x3e8666f9	0.26250437
196	0xbdad1503	-0.08451273
197	0xbe945546	-0.28971308
198	0x3de7f3b4	0.113257796
199	0x3e3708b8	0.1787442
200	0x3e92e107	0.28687307
201	0x3e674f3c	0.2258882
202	0xbe631d29	-0.22179092
203	0x3e1c59fa	0.15268698
204	0xbea5138c	-0.32241476
205	0xbe9a0f14	-0.3008963
206	0xbe7ba959	-0.2457632
207	0xbda229e6	-0.07918148
208	0xbe10e886	-0.141512
209	0xbcd9dd69	-0.026594834
210	0xbc06acf0	-0.008219942
211	0xbe79a81d	-0.24380536
212	0x3cee6460	0.029100597
213	0xbe396818	-0.18106115
214	0x3e5a9260	0.213449
215	0xbe918be1	-0.28427032
216	0xbe2a7490	-0.16646028
217	0xbe499e08	-0.1968919
218	0x3e242c5f	0.16032551
219	0xbe88ece4	-0.26743233
220	0xbd99cc26	-0.07509641
221	0xbcfb35ab	-0.03066524
222	0xbe4e6ae9	-0.2015797
223	0xbe2c6992	-0.16837147
224	0xbe650b25	-0.22367533
225	0x3c8880ec	0.016663037
226	0xbe4781c7	-0.194831
227	0xbe1b6c95	-0.1517814
228	0x3ceea275	0.0291302
229	0x3e2167d8	0.1576227
230	0xbe33cdef	-0.17559026
231	0x3e3e468c	0.18581599
232	0x3e338fea	0.17535368
233	0xbcf0d2bb	-0.02939736
234	0xbcc6532f	-0.024209587
235	0x3e725f84	0.23669249
236	0x3e0b7524	0.13618904
237	0x3dbdbeec	0.09264931
238	0xbdf5114d	-0.119661905
239	0x3e15b6dc	0.14620537
240	0xbe1b8dd1	-0.15190817
241	0x3e58d76f	0.21175931
242	0x3e458f35	0.1929291
243	0x3bb3de22	0.005489127
244	0x3d0e0ffc	0.034683213
245	0xbe16b890	-0.14718843
246	0x3dd3ddd3	0.10345044
247	0x3d8384c7	0.0642181
248	0xbe9adac0	-0.30245018
249	0x3ea65f79	0.32494715
250	0xbe960657	-0.29301712
251	0x3ea622ec	0.32448518
252	0x3eaca2f1	0.33718064
253	0x3e391056	0.18072638
254	0xbe780ee9	-0.24224438
255	0x3e6bdd80	0.23033714

transformer_encoder.layers.0.self_attn.in_proj_bias f4 [48]
0	0xbc843808	-0.016139999
1	0x3c1bebb7	0.009516648
2	0xbccf2608	-0.02528669
3	0x3a364d44	0.00069542625
4	0xbc25c2b0	-0.010117218
5	0x3bbbc20a	0.0057299184
6	0x3bc7b360	0.006094381
7	0xbbbc28f1	-0.0057421853
8	0xbc35ac76	-0.011088481
9	0xbc81f44e	-0.015863564
10	0x3c068606	0.008210665
11	0xbc4c9e8b	-0.012488971
12	0x3bafd95a	0.0053664865
13	0x3cdb0ec9	0.026740449
14	0xbcb0e239	-0.021592246
15	0x3cfb223d	0.030655975
16	0x3a7404f2	0.0009308598
17	0xba986a9b	-0.0011628451
18	0xbac831c8	-0.0015273625
19	0x3c344f6c	0.011005264
20	0xbcfa800e	-0.03057864
21	0xbca75aaa	-0.020428974
22	0xbcb3fff7	-0.02197264
23	0x3ce4dda8	0.027937725
24	0x3b300287	0.0026856975
25	0x3a092faf	0.00052332407
26	0x3ac1a41d	0.0014773641
27	0xbb259c76	-0.002527026
28	0x3c75b4ee	0.01499675
29	0x3c208239	0.0097966725
30	0x3c44f7c9	0.012021967
31	0x3c5ebac7	0.013594336
32	0xbcf592a0	-0.029977143
33	0x3d5c5868	0.05379525
34	0x3ca9f8e4	0.020748563
35	0x3d75e8aa	0.06003634
36	0xbc818920	-0.015812457
37	0xbc0164fd	-0.007897613
38	0x3c18f756	0.009336313
39	0x3a0a2708	0.00052700983
40	0xbb77922b	-0.0037776332
41	0x3d44607a	0.04794357
42	0xbc9935ca	-0.018702406
43	0x3d0a3439	0.03374121
44	0xbba85156	-0.005136649
45	0x3d2a45d1	0.04157049
46	0xbcc085b4	-0.023501255
47	0xbcb33868	-0.021877483
