checkpoints/CNN/CNN.pth (torch, 901801 bytes, 18 tensors)

cnn.0.weight f4 [64, 1, 3, 3]
0	0xbe383eac	-0.17992657
1	0xbe7fa1b1	-0.24964024
2	0xbdccc933	-0.09999313
3	0xbd272f6d	-0.040816713
4	0x3e14923b	0.14508907
5	0xbe8467b3	-0.25860366
6	0x3e5d2df6	0.21599564
7	0x3dd0ae42	0.10189487
8	0x3eb1ea9b	0.34749302
9	0xbd57da31	-0.052698318
10	0xbe725430	-0.23664927
11	0xbea4126f	-0.32045314
12	0xbcf0306a	-0.02931996
13	0x3ea8a712	0.32939965
14	0xbd13a33a	-0.036044337
15	0xbe515233	-0.20441513
16	0x3e797d93	0.24364309
17	0xbe711bbb	-0.23545735
18	0xbe1d393b	-0.15353863
19	0xbda8710a	-0.082246855
20	0xbe865662	-0.2623778
21	0x3d05f9a3	0.032708775
22	0x3eb77441	0.35830882
23	0x3dc3353a	0.095316365
24	0xbd805be9	-0.062675305
25	0x3ebe9b0e	0.37227672
26	0x3e84ca04	0.25935376
27	0x3e0c5ef5	0.13708098
28	0xbd746417	-0.059665766
29	0xbe938954	-0.2881571
30	0xbe3c62b4	-0.18397027
31	0x3b13ca0d	0.0022550852
32	0x3c2e8db1	0.010653899
33	0x3ea13730	0.31487417
34	0xbe25f37f	-0.16206168
35	0xbe056a89	-0.13028921
36	0x3d065398	0.032794565
37	0xbdf517b5	-0.119674124
38	0xbeb5b436	-0.35489053
39	0x3e503a8e	0.20334837
40	0xbe417661	-0.18892814
41	0xbe1fc90b	-0.15604036
42	0xbe9dbc1c	-0.3080758
43	0x3e481e8b	0.19542901
44	0xbd91197a	-0.070849374
45	0x3dee29d2	0.1162907
46	0x3e3d189d	0.1846642
47	0xbe758732	-0.23977354
48	0xbd321b40	-0.04348302
49	0xbe2fd8e2	-0.17172578
50	0x3eb5ecd7	0.35532257
51	0xbe80e154	-0.25171912
52	0xbea726af	-0.326467
53	0xbe59adb5	-0.2125767
54	0x3e47849a	0.19484177
55	0x3d896add	0.06709836
56	0xba3772f4	-0.00069980253
57	0x3e989524	0.29801285
58	0xbe9bfd54	-0.30466712
59	0x3ea6b20d	0.32557717
60	0xbe985910	-0.2975545
61	0xbe923401	-0.285553
62	0x3e7d90cc	0.24762267
63	0xbdff6faf	-0.12472474
64	0xbdd691bb	-0.10477015
65	0x3ea69ff3	0.32543907
66	0x3d7ffba3	0.06249584
67	0x3e1bfe5b	0.15233748
68	0x3e93b2e3	0.28847417
69	0xbde3a232	-0.11114921
70	0x3d8a3812	0.06748976
71	0x3da81985	0.082079925
72	0x3e2f3a40	0.17112064
73	0x3e969160	0.29407787
74	0xbd93d91d	-0.072191454
75	0x3e7f7c45	0.24949749
76	0xbe717c19	-0.23582496
77	0xbda26f04	-0.07931331
78	0x3df06473	0.11737909
79	0xbe84e66c	-0.25957048
80	0xbe944720	-0.28960514
81	0xbe8cd26e	-0.27504295
82	0xbea89e07	-0.32933065
83	0xbd546223	-0.051851403
84	0x3d80d95f	0.0629146
85	0xbd066702	-0.03281308
86	0xbe353949	-0.17697634
87	0x3ba0773c	0.0048970263
88	0x39f425f7	0.00046567593
89	0xbd6c9873	-0.057762574
90	0xbe420af9	-0.18949498
91	0x3e764dae	0.2405307
92	0xbe66e91e	-0.22549865
93	0x3c86ec88	0.016470209
94	0x3e396d45	0.1810809
95	0xbea13213	-0.31483516
96	0x3d8f2a5b	0.069905005
97	0x3e342eb7	0.17595945
98	0xbc9f8cfb	-0.019476404
99	0xbea7c5a5	-0.32767978
100	0x3e8aa719	0.2708061
101	0xbe060a40	-0.13089848
102	0x3e86477b	0.2622641
103	0xbe66c869	-0.22537388
104	0xbe4a2e6a	-0.19744268
105	0x3e838873	0.2569004
106	0xbdaa6f18	-0.08321971
107	0x3e598558	0.21242273
108	0x3e9018bb	0.28143868
109	0xbc740ac0	-0.014895141
110	0x3de7cba5	0.11318139
111	0x3e911ce2	0.28342348
112	0xbe8a5fa1	-0.27026084
113	0x3dbc744c	0.09201869
114	0x3da6b042	0.08139087
115	0xbe56bb0d	-0.20969792
116	0x3e1a0847	0.1504222
117	0xbceeb83d	-0.029140586
118	0xbe717580	-0.23579979
119	0xbe35b254	-0.17743808
120	0x3d1238f7	0.035698857
121	0x3e4807d6	0.19534239
122	0xbd47bacc	-0.048762128
123	0x3cb63e19	0.022246407
124	0x3e2c87db	0.168487
125	0x3e7361a8	0.23767722
126	0xbd48af0d	-0.048995066
127	0x3e5a2cfc	0.21306223
128	0xbe000ee6	-0.12505683
129	0xbe1b6041	-0.15173437
130	0x3ebc64f0	0.3679576
131	0xbde9379c	-0.1138756
132	0xbe2864eb	-0.16444747
133	0x3e81dfdb	0.253661
134	0xbdd5fd98	-0.1044876
135	0xbd84c94b	-0.06483706
136	0xbe9c8994	-0.30573714
137	0x3e8de7e6	0.27715987
138	0x3e91e171	0.2849231
139	0x3e840ece	0.25792545
140	0xbe8eda6d	-0.2790102
141	0xbde33f4a	-0.11096056
142	0xbe887651	-0.26652768
143	0x3ea64d14	0.3248068
144	0xbe0575b3	-0.1303318
145	0x3e32e896	0.17471537
146	0xbe372b08	-0.17887509
147	0xbb026c47	-0.0019900964
148	0xbe87defd	-0.26537314
149	0x3e48297f	0.1954708
150	0x3dd6a0dc	0.104799
151	0x3e504ce8	0.20341837
152	0xbe9cde24	-0.3063823
153	0xbd410964	-0.047128096
154	0x3e341687	0.17586718
155	0x3e3144e0	0.1731143
156	0x3d828242	0.06372501
157	0xbd8bcbf5	-0.06826011
158	0xbe047510	-0.12935281
159	0x3ea2fdc7	0.31834242
160	0xbe16ad2c	-0.14714497
161	0x3e9d3483	0.30704126
162	0x3e88be6b	0.26707777
163	0x3eadcb30	0.33944082
164	0x3e4d57a3	0.20052962
165	0x3d4c0bb3	0.049815845
166	0x3df2c1d2	0.118533745
167	0x3e7b069c	0.2451424
168	0xbe975bbf	-0.29562184
169	0x3eaddb8b	0.3395656
170	0x3e2b332a	0.16718736
171	0xbe15882c	-0.14602727
172	0x3e9f1cf8	0.3107679
173	0x3d13da25	0.03609671
174	0x3ea9e81c	0.33184898
175	0x3e84f4ab	0.25967917
176	0x3d5af7f6	0.05345913
177	0xbcc98956	-0.02460162
178	0x3e1abd57	0.1511129
179	0xbd12978d	-0.03578906
180	0x3e6d8eb4	0.23198968
181	0xbe63f169	-0.2226006
182	0xbebc3d08	-0.36765313
183	0x3e86e4e4	0.26346505
184	0x3e7ff6b2	0.2499645
185	0xbe1654fb	-0.14680855
186	0x3e48d9c7	0.19614325
187	0xbe8482bb	-0.2588099
188	0xbe9e809f	-0.30957505
189	0xbde1f050	-0.11032164
190	0x3e0cf53d	0.13765426
191	0xbe9c61dd	-0.30543414
192	0x3dcecc52	0.10097565
193	0xbd58cacb	-0.052927773
194	0xbe8a95d1	-0.27067426
195	0xbdfee3d7	-0.12445801
196	0xbe236c50	-0.15959287
197	0xbe05c4a1	-0.13063289
198	0x3df19112	0.11795248
199	0xbdcf2044	-0.10113576
200	0x3c953959	0.018215822
201	0xbe3ddd98	-0.18541563
202	0x3e418718	0.1889919
203	0x3e64b90a	0.22336212
204	0x3e8bc2d1	0.2729707
205	0x3e8e0b57	0.27743027
206	0x3e89c283	0.26906213
207	0xbe4fc259	-0.20288981
208	0xbe823619	-0.25431898
209	0xbe34d9b3	-0.1766117
210	0x3e2067fd	0.15664668
211	0x3da53831	0.08067358
212	0x3e41df2e	0.18932793
213	0x3e7470cc	0.23871154
214	0x3ddd115d	0.107943274
215	0xbe50291d	-0.20328183
216	0x3d37c0b4	0.04486151
217	0x3d9d8839	0.07691998
218	0x3e978523	0.29593763
219	0x3da4d86f	0.08049094
220	0x3eafb4b6	0.3431756
221	0x3d847f51	0.06469596
222	0xbe041d60	-0.1290183
223	0xbd158306	-0.036501907
224	0xbdcd4fe3	-0.10025003
225	0xbda69e56	-0.08135669
226	0xbdb743d8	-0.08948487
227	0x3e93bc2f	0.2885451
228	0x3e9d9042	0.30774122
229	0x3ea8b273	0.32948646
230	0x3e0e465b	0.13894026
231	0xbe878d2e	-0.264749
232	0x3e882c14	0.2659613
233	0xbe6f29d5	-0.23355801
234	0xbd9b4bfe	-0.07582854
235	0xbea68d4b	-0.32529673
236	0xbe6a30f5	-0.22870238
237	0xbe858571	-0.2607837
238	0x3cfc0e45	0.030768523
239	0xbd13e629	-0.03610817
240	0xbdc75a0d	-0.09733973
241	0xbead9292	-0.33900887
242	0x3daecb23	0.08534839
243	0xbe8e515f	-0.27796456
244	0x3c852c5e	0.016256507
245	0xbe9cff08	-0.30663323
246	0x3e134ca7	0.1438471
247	0x3e6eef31	0.23333432
248	0xbe7e0418	-0.24806249
249	0xbe0523e8	-0.13001978
250	0xbd9e74af	-0.077370994
251	0x3e3668fa	0.17813483
252	0x3b0f8c77	0.0021903792
253	0x3dd3aba5	0.10335473
254	0xbdbd2311	-0.09235204
255	0x3dcb3599	0.09922332

cnn.0.bias f4 [64]
0	0x3e0d7d19	0.13817252
1	0xbe623eb6	-0.22094235
2	0x3d328f25	0.043593545
3	0xbe0f8fb6	-0.14019665
4	0xbe0dfa6a	-0.13865057
5	0x3d69ef3a	0.05711291
6	0x3e20521c	0.15656322
7	0xbe994301	-0.29933932
8	0x3e76d2ce	0.24103853
9	0xbe1effed	-0.15527315
10	0xbe88d11b	-0.26722035
11	0x3e6f1a45	0.23349865
12	0x3e2473a1	0.16059734
13	0x3e0f8be3	0.14018206
14	0xbe65849b	-0.22413866
15	0x3e9552cb	0.2916473
16	0xbdb8acaa	-0.09017308
17	0x3e73a535	0.2379349
18	0xbe97448b	-0.29544482
19	0xbe9b792a	-0.30365878
20	0xbe1fe429	-0.1561438
21	0xbd996b72	-0.07491197
22	0x3e030ee4	0.12798649
23	0x3d628133	0.055298995
24	0x3e884b90	0.2662015
25	0x3bd540a2	0.006507949
26	0x3e9b6e77	0.30357715
27	0x3e26f069	0.16302647
28	0x3e9d9cfc	0.30783832
29	0x3c83b4c1	0.016077401
30	0xbe938e87	-0.28819677
31	0x3e6f2741	0.23354818
32	0x3e5c3ee5	0.21508367
33	0xbd2570c2	-0.040390737
34	0x3e50f896	0.20407328
35	0x3cffedf6	0.031241398
36	0x3e5fbb90	0.21848893
37	0xbdcae3b8	-0.09906715
38	0x3e794795	0.24343713
39	0xbddb73f9	-0.107154794
40	0x3e176f81	0.14788629
41	0x3e90dac1	0.28291896
42	0x3e4b614d	0.19861336
43	0xbcd0ce85	-0.025489101
44	0x3dcadefb	0.099058114
45	0xbdd2c52a	-0.10291512
46	0x3d89b91a	0.067247584
47	0xbd273808	-0.04082492
48	0x3e8fe4c1	0.28104213
49	0xbd5e5f00	-0.054289818
50	0x3e873a6c	0.2641176
51	0xbe0a1a31	-0.13486554
52	0xbe82ebc3	-0.25570497
53	0xbe021e7c	-0.12706941
54	0xbe8b0d21	-0.27158454
55	0xbe50ce16	-0.20391116
56	0x3e834740	0.25640297
57	0x3e60a3f1	0.21937539
58	0x3e377819	0.17916907
59	0xbe5628e6	-0.20914039
60	0x3d966f2f	0.07345425
61	0x3d4274b2	0.04747457
62	0x3e84e41d	0.25955287
63	0x3e04dd3a	0.12975016

cnn.1.weight f4 [64]
0	0x3f912bba	1.1341469
1	0x3f790241	0.97269064
2	0x3f5f22ad	0.87162286
3	0x3f6afa67	0.91788334
4	0x3f816217	1.010806
5	0x3f5105c5	0.8164943
6	0x3f819db3	1.0126251
7	0x3f75f75b	0.9608056
8	0x3f81599e	1.0105474
9	0x3f5dea49	0.86685616
10	0x3f7e193c	0.99257255
11	0x3f72b24d	0.94803315
12	0x3f74a2a5	0.95560676
13	0x3f761deb	0.961394
14	0x3f570985	0.839989
15	0x3f798f44	0.9748423
16	0x3f88dce6	1.0692413
17	0x3f86456d	1.0489937
18	0x3f7faf20	0.99876595
19	0x3f812d52	1.0091956
20	0x3f7579c5	0.9588893
21	0x3f86211d	1.0478855
22	0x3f839053	1.0278419
23	0x3f8530d9	1.0405532
24	0x3f7e4a86	0.99332464
25	0x3f80ce20	1.0062904
26	0x3f525cd3	0.8217289
27	0x3f64c2e3	0.89359874
28	0x3f79aa0c	0.97525096
29	0x3f7c53ee	0.98565567
30	0x3f84d881	1.0378572
31	0x3f57a933	0.8424255
32	0x3f748d3c	0.95528007
33	0x3f470b3e	0.7775153
34	0x3f7f088c	0.99622416
35	0x3f81ca14	1.0139794
36	0x3f7881ff	0.9707336
37	0x3f82be3c	1.0214305
38	0x3f8e8adb	1.1136125
39	0x3f55a290	0.83451176
40	0x3f7eb2d6	0.9949163
41	0x3f838c26	1.0277145
42	0x3f656071	0.8960028
43	0x3f5f20b6	0.8715929
44	0x3f7ec8db	0.9952523
45	0x3f52b357	0.823049
46	0x3f83718d	1.0269028
47	0x3f804145	1.0019919
48	0x3f89cfe4	1.0766568
49	0x3f7cdd9d	0.98775655
50	0x3f70a2b9	0.93998295
51	0x3f75f58c	0.960778
52	0x3f81b2d1	1.0132695
53	0x3f45da22	0.7728597
54	0x3f7da4af	0.9907941
55	0x3f546e07	0.8298039
56	0x3f745ce1	0.9545422
57	0x3f6b09fe	0.9181212
58	0x3f815ed7	1.0107068
59	0x3f7bc3b9	0.98345524
60	0x3f5d0a18	0.86343527
61	0x3f7c316e	0.98512924
62	0x3f3bb430	0.7332182
63	0x3f60bc87	0.8778767

cnn.1.bias f4 [64]
0	0xbd0aa855	-0.03385194
1	0x3d40b2f3	0.04704566
2	0xbd26445f	-0.040592548
3	0xbe84141a	-0.25796586
4	0xbde2e0eb	-0.11078056
5	0x3d93df94	0.072203785
6	0xbd777199	-0.06041107
7	0xbdfcefac	-0.12350401
8	0xbe865a09	-0.26240566
9	0xbd5af538	-0.053456515
10	0xbd0264fb	-0.031834584
11	0xbe8808b1	-0.2656913
12	0xbe435ff5	-0.19079573
13	0x3dda79f2	0.106677905
14	0xbd37cdcd	-0.044874
15	0xbd5079ae	-0.050897293
16	0xbdac5f48	-0.08416611
17	0xbdde0322	-0.10840441
18	0x3dce216a	0.10064967
19	0x3d25a95c	0.040444717
20	0xbe893788	-0.2680018
21	0xbddb6f6d	-0.10714612
22	0xbc3e242a	-0.011605302
23	0xbe860b63	-0.26180562
24	0x3dddd6b2	0.108319655
25	0x3cc1b745	0.02364696
26	0xbe63a2f7	-0.22230135
27	0xbcddec77	-0.027090294
28	0x3dbfff40	0.09374857
29	0xbdf82ee3	-0.12118318
30	0xbd7d9e3e	-0.06191849
31	0x3d61b558	0.055104584
32	0xbe15e126	-0.14636669
33	0xbe81dab3	-0.25362167
34	0xbe4006b4	-0.18752557
35	0xbe3939f0	-0.18088508
36	0xbea01e58	-0.3127315
37	0x3e93a79a	0.28838807
38	0xbe10e134	-0.14148408
39	0xbe4a97e3	-0.19784503
40	0x3e8eec6d	0.27914754
41	0xbe233258	-0.15937173
42	0xbe1baa35	-0.15201648
43	0xbdf043dc	-0.11731693
44	0xbeaf1231	-0.34193566
45	0xbe736e65	-0.23772581
46	0x3d51b2ee	0.05119603
47	0x3b8d451f	0.0043112184
48	0xbe0eee98	-0.13958204
49	0x3d4f8508	0.050663978
50	0x3d9d48fb	0.076799355
51	0xbcf45db9	-0.029829847
52	0xbe0f8374	-0.14014989
53	0xbd2a24a2	-0.041538842
54	0xbe4fea34	-0.20304185
55	0xbe02cd25	-0.12773569
56	0xbe33a0c0	-0.1754179
57	0xbe7d1db0	-0.24718356
58	0xbe443d3a	-0.19163981
59	0xbdee7012	-0.116424695
60	0x3b6c85f4	0.0036090584
61	0x3dcbec33	0.09957161
62	0xbe0e667f	-0.13906287
63	0xbe9988b0	-0.29987097

cnn.1.running_mean f4 [64]
0	0x3ea60499	0.32425383
1	0xc033ba97	-2.8082635
2	0xc147a82f	-12.47856
3	0xc0030ebe	-2.0477748
4	0x40768600	3.8519287
5	0x4153ae32	13.230028
6	0x4122aab2	10.166674
7	0x4021e50c	2.529605
8	0xc1185b24	-9.522251
9	0x416b2cea	14.698465
10	0xc16c00d2	-14.7502
11	0xc08273b0	-4.076622
12	0xc04d7ccc	-3.210742
13	0xc0839f4d	-4.113196
14	0xc15d80c8	-13.843941
15	0x40cb4c9a	6.353101
16	0xc0376e46	-2.8661056
17	0xc0e16f5a	-7.0448427
18	0xc1aada7b	-21.35668
19	0xc1c1e22a	-24.235432
20	0xc16007f3	-14.001941
21	0x4085c5d1	4.1803975
22	0xc164673e	-14.275206
23	0xc06700bf	-3.6094205
24	0xc119c744	-9.611149
25	0xc145c35a	-12.360193
26	0x41e6f610	28.870148
27	0x3fe05515	1.7525965
28	0xc1889d3b	-17.076773
29	0xbfa350e0	-1.2759056
30	0xc1bf8f78	-23.945053
31	0x418c14ae	17.510098
32	0x401545a4	2.3323755
33	0x41ab5ebb	21.421255
34	0x3fac3004	1.3452153
35	0xbf793c66	-0.97357786
36	0x3e87b5f6	0.26506013
37	0xc1b73d0f	-22.904814
38	0xc13eb0f2	-11.9182
39	0x413bf01c	11.74612
40	0xc1789f39	-15.538873
41	0xc0201989	-2.5015585
42	0xbe476a4c	-0.19474143
43	0x40e26c6d	7.0757356
44	0xc0b19d37	-5.5504413
45	0x4187131d	16.884333
46	0xbfa205ee	-1.265806
47	0xc1511ed1	-13.070024
48	0xc0b192ce	-5.5491705
49	0xc0d7f737	-6.7489276
50	0xc11435e6	-9.263159
51	0xc192b925	-18.340403
52	0x416abc47	14.670966
53	0x4100e107	8.054938
54	0xc0bfe03e	-5.9961233
55	0xc127e6ca	-10.493845
56	0x3fdb3bd6	1.7127635
57	0x3fdcc254	1.7246804
58	0x40faca2c	7.837179
59	0xc052cd46	-3.293779
60	0x4163451f	14.204375
61	0xc194b6bf	-18.589231
62	0x419819c9	19.01259
63	0x4199710a	19.180195

cnn.1.running_var f4 [64]
0	0x4251dd69	52.46622
1	0x458504c8	4256.5977
2	0x45de6412	7116.509
3	0x44fbc576	2014.1707
4	0x43b14ca4	354.59875
5	0x44c5a606	1581.1882
6	0x45c7a469	6388.5513
7	0x448a136d	1104.607
8	0x45ae5fce	5579.9756
9	0x44ea6204	1875.063
10	0x45dd8752	7088.915
11	0x4433ba2d	718.909
12	0x463851f4	11796.488
13	0x4387630c	270.7738
14	0x4664e8ae	14650.17
15	0x45092e50	2194.8945
16	0x43ce8a45	413.08023
17	0x44e19515	1804.6588
18	0x45f98db9	7985.7153
19	0x45e49888	7315.0664
20	0x4610643d	9241.06
21	0x440915ee	548.34265
22	0x44da9767	1748.7313
23	0x443bedbd	751.71466
24	0x44f1efac	1935.4897
25	0x4562ff18	3631.9434
26	0x45d5ee12	6845.759
27	0x44f61fec	1968.9976
28	0x45b71c87	5859.566
29	0x4436fa62	731.91223
30	0x45e3f4b0	7294.586
31	0x4541bc3d	3099.765
32	0x44113648	580.84814
33	0x45aeb8b0	5591.086
34	0x444d79bc	821.9021
35	0x44a1675e	1291.2302
36	0x44bf750e	1531.658
37	0x45ae091b	5569.138
38	0x44f886ce	1988.2126
39	0x44e7bc3e	1853.8826
40	0x452a5e2b	2725.8855
41	0x44176402	605.5626
42	0x453dd973	3037.5906
43	0x4461e9d7	903.65375
44	0x44acdc31	1382.881
45	0x451d0944	2512.579
46	0x42418dad	48.388355
47	0x45143a40	2371.6406
48	0x43f02188	480.26196
49	0x44144df3	593.21796
50	0x453b22d2	2994.1763
51	0x45fef4f4	8158.619
52	0x457db544	4059.329
53	0x4425713b	661.7692
54	0x447a9c9f	1002.4472
55	0x45211018	2577.0059
56	0x45a00ef1	5121.8677
57	0x43c0150b	384.1644
58	0x442471d2	657.77844
59	0x43aed77a	349.6834
60	0x451f8e7e	2552.9058
61	0x4573e268	3902.1504
62	0x459aaa2a	4949.2705
63	0x45abd334	5498.4004

cnn.3.weight f4 [128, 64, 3, 3]
0	0xbdfd1df0	-0.12359226
1	0xbdbbc031	-0.09167517
2	0xbdf5c3df	-0.1200025
3	0xbdbb9b4a	-0.091604784
4	0xbd599c21	-0.05312741
5	0xbdd0faa1	-0.10204054
6	0xbdb921ba	-0.09039636
7	0xbdbd23d2	-0.09235348
8	0xbde1084e	-0.10987912
9	0x3c8c7abe	0.017148372
10	0xbc835abb	-0.016034475
11	0x3d5b66d1	0.05356485
12	0x3d7c4df0	0.061597764
13	0x3d553d72	0.052060552
14	0x3d67e196	0.05661162
15	0x3d04323d	0.032274473
16	0x3c9e91d1	0.01935664
17	0x3d5c1888	0.053734332
18	0x3c38f991	0.01128997
19	0x3cb38140	0.021912217
20	0x3d437972	0.04772324
21	0xbcee56c3	-0.029094106
22	0xbcab5b7f	-0.020917652
23	0x3ca6df1a	0.020370055
24	0x3d12f19e	0.035874955
25	0x3b86f12d	0.004118106
26	0xbd0e9ab9	-0.034815524
27	0x3bd48e06	0.006486657
28	0x3ccd1bc6	0.025037657
29	0xbcf1cd21	-0.029516758
30	0xbb3ec8bf	-0.0029111353
31	0xbcca613d	-0.02470457
32	0x3d08ac26	0.0333673
33	0x3d6529c5	0.055948038
34	0x3c9fad9b	0.019491961
35	0x3c65954c	0.014012646
36	0xb89e1027	-7.537036e-05
37	0x3d40a684	0.0470338
38	0xbd4c15c6	-0.049825452
39	0x3d55d61f	0.052206155
40	0x3b2baebd	0.0026196681
41	0xbb8d5856	-0.004313509
42	0xbc792b1c	-0.015208032
43	0xbd19e0f4	-0.037568048
44	0xbda50ed8	-0.08059472
45	0xbc833a05	-0.016018877
46	0xbb17218d	-0.002306077
47	0xbc194ff5	-0.009357442
48	0xbcb7fcfe	-0.022459503
49	0xbbcb675d	-0.00620739
50	0xbcc11048	-0.023567334
51	0xbbb157b8	-0.005412068
52	0xbd0710e5	-0.032975096
53	0xbc0dc724	-0.008653436
54	0x3d1f01f7	0.038820233
55	0x3c4365f0	0.011926159
56	0x3c6a2298	0.014290474
57	0xbd1b8491	-0.037968222
58	0xbc6421e7	-0.013924099
59	0xbc0909d4	-0.00836416
60	0x3d18eba0	0.037334085
61	0xbbb02d8c	-0.0053765234
62	0xbc29b233	-0.010357427
63	0xbcbc6c01	-0.023000719
64	0xbd2cf181	-0.042222504
65	0x3c970342	0.01843417
66	0x3ce58b06	0.028020393
67	0x3d1a8eee	0.037733965
68	0x3cc42250	0.023942143
69	0x3d5b3850	0.0535205
70	0x3d25db96	0.040492617
71	0x3bbac2d1	0.0056994935
72	0x3d80fad8	0.06297845
73	0x3bef32db	0.0072997636
74	0xbd8904ca	-0.066903666
75	0xbb81d839	-0.0039625433
76	0xbd41ec06	-0.04734423
77	0xbd98d22e	-0.074619636
78	0x3cb25cfd	0.021772856
79	0xbc95e7f1	-0.018299075
80	0xbd1955c4	-0.037435308
81	0x3cd57cea	0.02606054
82	0xbc43bb3d	-0.011946497
83	0x3b9040a5	0.0044022375
84	0xbcf57852	-0.0299646
85	0x3ba8a357	0.0051464248
86	0x3cb915bc	0.022593372
87	0xbb8af0c8	-0.004240129
88	0xba48bfe4	-0.00076579885
89	0x3b0b67d9	0.0021271615
90	0x3bd70c5e	0.0065627536
91	0xbb3256ca	-0.0027212375
92	0x3cb6cdea	0.022314984
93	0xbd16054a	-0.036626138
94	0x3cedf143	0.029045707
95	0x3d40b1c1	0.04704452
96	0xbd705936	-0.05867883
97	0x3c8a8119	0.016907262
98	0x3bfe2ce5	0.0077568167
99	0x3d39a2b7	0.045321193
100	0xba139385	-0.0005629587
101	0x3cb82244	0.022477277
102	0x3d60684e	0.054786973
103	0x3c3f472c	0.011674684
104	0xbcae918d	-0.021309638
105	0x3b8e86b7	0.0043495554
106	0x3cba5f6e	0.022750583
107	0x3d4573b4	0.048206046
108	0x3c782648	0.015145846
109	0x3c8ac6b2	0.016940448
110	0x3d166975	0.036721665
111	0x3d2d5e87	0.042326476
112	0x3ccb8628	0.024844244
113	0xbd134133	-0.03595085
114	0x3d76eab3	0.06028242
115	0xbc8c55b8	-0.017130718
116	0x3c8ab80b	0.016933462
117	0x3b18c816	0.002331262
118	0x3c779295	0.0151106315
119	0xbcc39489	-0.023874538
120	0xbbcacae3	-0.0061887368
121	0x3cde59c8	0.02714242
122	0xbce5d4a3	-0.028055495
123	0x3d73874a	0.059455194
124	0x3d5c0fc1	0.05372596
125	0x3d035ecd	0.03207283
126	0x3ad8b40c	0.001653315
127	0x3c83e1c9	0.016098874
128	0x3cf7cd8d	0.030249381
129	0x3d790b34	0.0608017
130	0xbbf05f92	-0.0073356116
131	0x3c85e124	0.016342707
132	0x3d343054	0.0439914
133	0x3c7788c5	0.015108292
134	0xbb7c6675	-0.0038513218
135	0x3b848be6	0.0040449975
136	0x3ca13657	0.019679232
137	0x3cbf3f74	0.023345686
138	0xbcd0d616	-0.02549271
139	0x3c1b4c8f	0.009478702
140	0x3b33b772	0.0027422574
141	0xbc3b941d	-0.011448887
142	0xbcf15145	-0.029457698
143	0xbcb8a4a6	-0.022539448
144	0x3d3323d5	0.043735344
145	0x3d90861b	0.070568286
146	0x3bb00270	0.0053713843
147	0x3cd10178	0.025513396
148	0x3cecbb8a	0.02889802
149	0x3d9250ee	0.07144342
150	0x3cca6017	0.024704022
151	0x3d01b878	0.031670064
152	0x3c60859d	0.013703731
153	0x3d1466d1	0.036230866
154	0x3c401331	0.011723326
155	0xbdb5a8d4	-0.08870092
156	0x3d51d0be	0.051224463
157	0x3caf529e	0.0214017
158	0xbcd662f6	-0.026170235
159	0xbb62eea4	-0.0034627104
160	0xbbb5ead7	-0.0055516767
161	0xbb587dd4	-0.0033033984
162	0xbc4ff839	-0.012693458
163	0xbced5c75	-0.028974751
164	0xbd6ab89d	-0.057304967
165	0xbcbf0318	-0.023316905
166	0xbd5d6f96	-0.054061495
167	0xbd764450	-0.06012374
168	0xbd79847e	-0.06091737
169	0xbd46ef8e	-0.0485683
170	0xbca20a5c	-0.01978033
171	0x3bf82d9a	0.0075737955
172	0x3b95d4a5	0.0045724683
173	0x3c28dcb3	0.010306525
174	0xbca18c5b	-0.019720247
175	0x3cec5662	0.028849784
176	0xbca25ba7	-0.019819094
177	0x3d6690c5	0.056290407
178	0x3d5ff8a6	0.05468049
179	0x3c9ef9bb	0.01940619
180	0x3c6a99bb	0.014318879
181	0x3cda7c26	0.026670527
182	0xbd66c63b	-0.05634139
183	0xbb31ed9f	-0.002714969
184	0xbd2e4a01	-0.042551044
185	0xbd102ccf	-0.035198983
186	0x3cc92eb6	0.024558406
187	0xbd58826f	-0.052858766
188	0xbd79e3d3	-0.061008286
189	0x3d4422c6	0.047884725
190	0x3d27eaad	0.04099529
191	0x3ce2edbd	0.027701253
192	0x3cacf58c	0.02111318
193	0x3d7dfd3d	0.062009085
194	0x3cb22285	0.021744976
195	0x3b7d96cb	0.0038694616
196	0x3ca582db	0.020203998
197	0x3b0815b0	0.002076488
198	0xbccef15d	-0.025261575
199	0x3cc8f80f	0.024532346
200	0x3c63f09c	0.013912346
201	0x3c4ad4c5	0.01237983
202	0xbc8a6eb1	-0.016898485
203	0x3c976ae7	0.018483592
204	0x3ccd0fcd	0.025031948
205	0xbd036072	-0.0320744
206	0x3c46987b	0.012121315
207	0xbd1930ea	-0.037400164
208	0xbd27cf2a	-0.04096905
209	0xbda62a2f	-0.08113515
210	0x3bafc834	0.0053644422
211	0x3cb3f08c	0.021965288
212	0xbdc423cc	-0.0957714
213	0xbcbcbc25	-0.023038933
214	0xbc9c4070	-0.019073695
215	0xbd901d78	-0.07036871
216	0xbd866653	-0.065624855
217	0xbd0f13b7	-0.03493091
218	0xbdaceb74	-0.084433466
219	0x3c240344	0.010010544
220	0xbd1a4ef8	-0.037672967
221	0xbd9c421f	-0.07629799
222	0xbb991a05	-0.004672291
223	0xbd3894ba	-0.04506371
224	0xbd0274f2	-0.03184981
225	0xbcfe527a	-0.031045187
226	0xbd110746	-0.035407327
227	0xbc86f195	-0.016472617
228	0xbd6800c2	-0.056641348
229	0xbd886d00	-0.06661415
230	0xbd166aec	-0.036723062
231	0xbcd34998	-0.025791928
232	0xbd376a6a	-0.04477922
233	0xbb9cc531	-0.0047842492
234	0x3ca96bec	0.020681344
235	0x3d5e788e	0.05431419
236	0x3d38c349	0.045108113
237	0x3d245653	0.040121388
238	0x3d39e9fa	0.045389153
239	0x3d10ed56	0.03538259
240	0x3d07ef5d	0.03318726
241	0x3cafab7b	0.021444073
242	0x3cc331e8	0.023827508
243	0x3cb7cc12	0.022436175
244	0x3d4f93bb	0.050677996
245	0xbcd44ad0	-0.02591458
246	0xbc9688af	-0.018375723
247	0x3c32ddba	0.010917122
248	0xbc1460c4	-0.009056274
249	0xb9dbcb59	-0.0004192244
250	0xbb350cec	-0.002762611
251	0xbbfea97b	-0.0077716685
252	0x3c098024	0.0083923675
253	0x3ac93f8c	0.0015354021
254	0xbd816e59	-0.06319875
255	0xbd748b8a	-0.059703387

cnn.3.bias f4 [128]
0	0xbccc9174	-0.024971701
1	0x3d16d03a	0.036819674
2	0x3b502c5f	0.0031764728
3	0xbc4f73cc	-0.0126618855
4	0x3d2c97f5	0.042137105
5	0xbd0021ae	-0.03128212
6	0xbb409cc1	-0.0029390308
7	0x3ce73699	0.028224276
8	0x3cdd815e	0.027039226
9	0x3d2daeb8	0.042402953
10	0x3c1a3334	0.009411622
11	0x3d039afe	0.032130234
12	0xbc0413e7	-0.008061386
13	0xbcee4067	-0.029083444
14	0x3b97d078	0.0046330057
15	0x3d4bf42c	0.049793407
16	0x3c9263fd	0.017869944
17	0x3bb6684d	0.005566633
18	0x3d1225aa	0.03568045
19	0x3c849b4e	0.016187336
20	0xbd34a198	-0.04409942
21	0xbc02141d	-0.007939366
22	0x3b2f1365	0.002671444
23	0x3d1f533d	0.03889774
24	0x3cd47868	0.02593632
25	0x3c49366e	0.012281043
26	0xbc154866	-0.009111499
27	0x3d177ed9	0.036986206
28	0x3cba3dd3	0.022734558
29	0x3d0bb37c	0.034106717
30	0xbd292e22	-0.04130376
31	0x3cec1d3b	0.028822532
32	0x3d2cc35f	0.042178508
33	0x3ca23527	0.019800736
34	0x3ccd5033	0.025062656
35	0xbc14269a	-0.009042406
36	0x3d0fee7c	0.035139546
37	0xbce05056	-0.027382057
38	0x3cef945e	0.029245552
39	0xbd679f70	-0.056548536
40	0xbb0c7ef5	-0.0021437977
41	0x3ca2d234	0.019875623
42	0x3a5c1c2c	0.0008396532
43	0xbd18d613	-0.037313532
44	0xbd02a47e	-0.031895153
45	0xbcc7aa11	-0.024373086
46	0xbd0af0a6	-0.033920906
47	0x3d34f81f	0.04418194
48	0xbad61727	-0.0016333804
49	0x3cff088c	0.031132005
50	0xbc9d421e	-0.019196566
51	0x3b586111	0.003301684
52	0xbd1f9e8a	-0.038969554
53	0xbcb61b34	-0.022229768
54	0xbc803c06	-0.015653621
55	0x3cf97bce	0.030454542
56	0x3cb50595	0.022097388
57	0x3ca99563	0.020701116
58	0x3c870d28	0.016485766
59	0x3cb10e46	0.021613251
60	0xbc6859b3	-0.014181542
61	0x3badaac5	0.0052998983
62	0xbbb91ab5	-0.0056489357
63	0xbaf47c3d	-0.0018652749
64	0x3ca6c473	0.020357346
65	0xbd14a9c0	-0.0362947
66	0x3c0d43d4	0.0086221285
67	0x3c33ef5a	0.010982359
68	0xbc01f5ab	-0.007932107
69	0xbca770e3	-0.02043957
70	0xbc8d3d4e	-0.017241146
71	0xbb4cafcd	-0.0031232715
72	0xbca092ee	-0.019601312
73	0x3d04d3bc	0.032428488
74	0xbc615a03	-0.013754371
75	0x3ca5e6d7	0.020251675
76	0xbd10108f	-0.03517204
77	0x3d2587b5	0.040412623
78	0xbce1074e	-0.027469303
79	0x3c915577	0.017740948
80	0xbc95b029	-0.018272476
81	0xbd71c4bd	-0.059025515
82	0xbcc7e39f	-0.02440053
83	0xbcd31efc	-0.02577161
84	0x3c8ff2c2	0.01757181
85	0x3d05e638	0.032690257
86	0x3d1c57d6	0.038169704
87	0xbcfbcee8	-0.030738309
88	0x3c660b28	0.014040746
89	0x3c8a9d9d	0.016920859
90	0xbccf30ae	-0.025291767
91	0xbc462b09	-0.012095221
92	0x3c828ba9	0.015935736
93	0xbc204b34	-0.009783555
94	0x3cb087d1	0.021549137
95	0xbd03a19f	-0.032136556
96	0xbc4459ef	-0.011984332
97	0xb9f24120	-0.0004620636
98	0x3c926fce	0.017875578
99	0x3c97b490	0.018518716
100	0xbd0391fa	-0.032121636
101	0x3b084d73	0.0020798116
102	0x3d0a58b5	0.033776004
103	0xbcebc24c	-0.028779171
104	0xbd153901	-0.036431316
105	0xbcf3585e	-0.029705223
106	0x3d17dc4f	0.037075337
107	0xbc069d59	-0.008216226
108	0xbd0e729d	-0.034777272
109	0x391b6a47	0.00014821543
110	0xbd11dba3	-0.035609853
111	0x3be94f89	0.007120077
112	0xbd106274	-0.035250142
113	0x3a318fdc	0.0006773451
114	0x3c320394	0.010865111
115	0x3ceac8f7	0.02866028
116	0xbcf2099b	-0.029545596
117	0xbc99d19b	-0.018776705
118	0x3cba7ae9	0.022763686
119	0xbc32c912	-0.010912197
120	0xbd0694ab	-0.032856625
121	0xbd279833	-0.040916633
122	0x3bbf5c2a	0.0058398442
123	0x3b7b9e9c	0.00383941
124	0xbada6984	-0.0016663526
125	0xbd0591a2	-0.03260959
126	0x3d537d41	0.051633123
127	0x3cb5816e	0.022156443

cnn.4.weight f4 [128]
0	0x3f87c787	1.0607766
1	0x3f83a2bb	1.0284036
2	0x3f851ff3	1.0400375
3	0x3f8527a6	1.0402725
4	0x3f8438e5	1.0329863
5	0x3f84b6fd	1.0368344
6	0x3f89a9e1	1.0754968
7	0x3f863413	1.0484642
8	0x3f89a778	1.0754232
9	0x3f84c35d	1.037212
10	0x3f8ce576	1.1007526
11	0x3f881835	1.0632387
12	0x3f861600	1.0475464
13	0x3f88c7b2	1.0685942
14	0x3f85a63e	1.0441358
15	0x3f84cc08	1.0374765
16	0x3f85e500	1.046051
17	0x3f866221	1.0498697
18	0x3f8581b7	1.0430211
19	0x3f8a134e	1.0787141
20	0x3f83ee0b	1.030702
21	0x3f862490	1.0479908
22	0x3f851e97	1.039996
23	0x3f87b6fa	1.0602715
24	0x3f849885	1.0359045
25	0x3f8a78f9	1.0818168
26	0x3f8413ff	1.0318602
27	0x3f862e03	1.0482792
28	0x3f850ecd	1.0395142
29	0x3f853fb9	1.0410072
30	0x3f86d869	1.0534793
31	0x3f86d060	1.0532341
32	0x3f83db0c	1.0301223
33	0x3f88f999	1.0701171
34	0x3f873cbe	1.0565412
35	0x3f8589d3	1.0432686
36	0x3f832ab2	1.0247405
37	0x3f85eb58	1.0462446
38	0x3f89e2b3	1.0772308
39	0x3f86294b	1.0481352
40	0x3f8b27ef	1.0871562
41	0x3f8537b4	1.0407624
42	0x3f854c8b	1.0413984
43	0x3f8a6495	1.0811945
44	0x3f894b9d	1.07262
45	0x3f8435b5	1.032889
46	0x3f878fc6	1.0590751
47	0x3f8f0576	1.1173542
48	0x3f83d4d3	1.0299324
49	0x3f89e0a5	1.0771681
50	0x3f8f43b1	1.1192533
51	0x3f889248	1.0669641
52	0x3f83d2bd	1.0298687
53	0x3f87cd09	1.0609447
54	0x3f89027a	1.0703881
55	0x3f86cacb	1.0530638
56	0x3f8a1d06	1.0790107
57	0x3f84485c	1.0334582
58	0x3f8b6b43	1.0892109
59	0x3f8772c2	1.0581896
60	0x3f895cf1	1.0731488
61	0x3f8599c6	1.0437553
62	0x3f883635	1.0641543
63	0x3f837788	1.0270853
64	0x3f877da4	1.0585217
65	0x3f85802f	1.0429744
66	0x3f875850	1.0573826
67	0x3f86438e	1.0489366
68	0x3f8798bb	1.0593485
69	0x3f8ad815	1.0847193
70	0x3f89943f	1.0748366
71	0x3f84434e	1.033304
72	0x3f8576f9	1.0426933
73	0x3f842ae1	1.0325586
74	0x3f85b202	1.0444949
75	0x3f8586d8	1.0431776
76	0x3f88a4e5	1.0675322
77	0x3f86aad1	1.0520879
78	0x3f881b5d	1.0633351
79	0x3f85b667	1.044629
80	0x3f8a2256	1.0791728
81	0x3f86dbaa	1.0535786
82	0x3f84ff29	1.0390369
83	0x3f8f44da	1.1192887
84	0x3f8553fa	1.0416253
85	0x3f8639d8	1.0486403
86	0x3f80f2d8	1.007411
87	0x3f8655ef	1.0494975
88	0x3f88ef85	1.0698096
89	0x3f844474	1.033339
90	0x3f87f34c	1.0621123
91	0x3f899b65	1.0750548
92	0x3f8886ce	1.0666139
93	0x3f8bd648	1.0924768
94	0x3f88885d	1.0666615
95	0x3f888abf	1.0667342
96	0x3f881bd9	1.0633498
97	0x3f861760	1.0475883
98	0x3f84353c	1.0328746
99	0x3f889fe6	1.0673797
100	0x3f867b53	1.0506386
101	0x3f896421	1.0733682
102	0x3f85f275	1.0464617
103	0x3f8a04c1	1.0782701
104	0x3f84b6e0	1.0368309
105	0x3f8eb819	1.1149932
106	0x3f83899e	1.0276372
107	0x3f894abc	1.0725932
108	0x3f86fca8	1.0545855
109	0x3f859770	1.043684
110	0x3f878fb5	1.0590731
111	0x3f877685	1.0583044
112	0x3f83bb2f	1.0291499
113	0x3f877808	1.0583506
114	0x3f83e739	1.0304939
115	0x3f87e440	1.0616531
116	0x3f85fa37	1.0466985
117	0x3f8b4eff	1.0883483
118	0x3f844097	1.0332211
119	0x3f8bcad6	1.0921276
120	0x3f8bf004	1.0932622
121	0x3f848ebe	1.0356061
122	0x3f846613	1.034365
123	0x3f8b53e0	1.0884972
124	0x3f855f47	1.0419701
125	0x3f87e710	1.061739
126	0x3f87332f	1.0562495
127	0x3f83bb8a	1.0291607

cnn.4.bias f4 [128]
0	0xbc83fb71	-0.016111108
1	0xbd262bfb	-0.040569287
2	0xbceb7052	-0.028740082
3	0xbd202455	-0.03909715
4	0xbd357750	-0.04430324
5	0xbcfdf8c8	-0.031002417
6	0xbd1237b6	-0.03569766
7	0xbcc06058	-0.02348344
8	0xbc85c585	-0.016329536
9	0xbcd3d975	-0.025860528
10	0x3d17b908	0.037041694
11	0xbc9c3091	-0.019066127
12	0xbccd042d	-0.025026405
13	0xbcf252a7	-0.029580427
14	0xbc9f162f	-0.019419758
15	0xbcaf1706	-0.021373283
16	0xbd0e61de	-0.034761302
17	0xbc8ab138	-0.016930208
18	0xbd070d35	-0.03297158
19	0xbcdaf1e4	-0.02672667
20	0xbcfcdb82	-0.030866388
21	0xbc96a1e1	-0.018387737
22	0xbcdd2847	-0.026996745
23	0xbd137fcf	-0.03601056
24	0xbd2ee79a	-0.04270134
25	0x3d026f5f	0.031844493
26	0xbcf1683a	-0.029468644
27	0xbd3a4a29	-0.04548088
28	0xbd0b2f21	-0.033980493
29	0xbccac472	-0.024751876
30	0x3c82ea82	0.015980963
31	0xbc64ba21	-0.013960392
32	0xbd2133fa	-0.03935621
33	0x3d01c85f	0.03168523
34	0x3cc76d9f	0.024344264
35	0xbcf612db	-0.030038288
36	0xbd451c3e	-0.048122637
37	0xbccf4672	-0.025302146
38	0x3d0e1b4f	0.034694012
39	0xbd2b2acd	-0.041788865
40	0x3d2bb1d5	0.04191764
41	0xbc44ee9f	-0.012019782
42	0xbcb1a75e	-0.021686252
43	0x3d183573	0.03716035
44	0x3d04e1c4	0.03244187
45	0xbd145097	-0.03620967
46	0xbcd1d4e9	-0.025614219
47	0xbcca16e9	-0.024669128
48	0xbd341db3	-0.043973636
49	0xbd103562	-0.03520716
50	0xbc9dc5bf	-0.019259332
51	0xbcb5b45d	-0.02218073
52	0xbd42ddc7	-0.047574785
53	0xbb72dc86	-0.0037057712
54	0xbd91c293	-0.0711719
55	0xbcdab6d5	-0.02669851
56	0x3d0b87aa	0.034064926
57	0xbd289eb8	-0.04116699
58	0x3cc87bc5	0.02447308
59	0xbcbcdde8	-0.023055032
60	0xbbfe30d3	-0.007757285
61	0xbcb022f9	-0.021501051
62	0xbd67536a	-0.056476034
63	0xbd2ec42b	-0.04266755
64	0xbb939670	-0.0045040175
65	0xbcfd4ac9	-0.03091945
66	0xbcd5ea8e	-0.026112821
67	0xbd331a05	-0.043725986
68	0x3cc8e5b7	0.0245236
69	0x3cf9ceb5	0.030494073
70	0x3a4b816f	0.00077631226
71	0xbd511b3b	-0.05105136
72	0xbcc8802e	-0.024475183
73	0xbd5998a4	-0.053124085
74	0x3d22a5d7	0.03970894
75	0xbc917d26	-0.01775987
76	0x3c50132e	0.012699885
77	0xbc1f6f86	-0.009731179
78	0xbca45a0a	-0.020062465
79	0xbc6841b2	-0.014175819
80	0x3d4ba7fc	0.04972075
81	0x3cab0041	0.020874145
82	0xbd071a92	-0.032984324
83	0xbce16419	-0.02751355
84	0xbce72e0c	-0.028220199
85	0xbc6d4e69	-0.0144840265
86	0xbd0874e2	-0.033314593
87	0xbcca2344	-0.02467502
88	0x3d087dfd	0.033323277
89	0xbd08ca67	-0.03339615
90	0xbca572e2	-0.020196382
91	0x3d2d68c7	0.04233625
92	0xbd0bdb06	-0.034144424
93	0xbcc0974f	-0.02350965
94	0xbcbbce16	-0.022925418
95	0xbc80f430	-0.015741438
96	0xbc969296	-0.018380444
97	0xbc783659	-0.015149676
98	0xbd47db87	-0.048793342
99	0xbcb2a026	-0.02180488
100	0xbcc9e0a0	-0.024643242
101	0x3d026e71	0.031843606
102	0x3c8bae00	0.017050743
103	0xbd22e773	-0.03977151
104	0xbd136884	-0.035988346
105	0xbcba377f	-0.02273154
106	0xbccb3368	-0.024804786
107	0xbca5ba67	-0.020230485
108	0xbc9557aa	-0.018230278
109	0xbd33fdc1	-0.04394317
110	0xbc47542a	-0.012166062
111	0x3cf6445c	0.030061893
112	0xbd0944c1	-0.033512834
113	0x3cfb15ce	0.030650046
114	0xbd2fd26c	-0.042925283
115	0xbd543f36	-0.051818095
116	0xbcb57f75	-0.022155503
117	0xbbbf86ff	-0.00584495
118	0xbd4366c9	-0.047705445
119	0xbc37e81a	-0.011224771
120	0xbce8ef95	-0.028434554
121	0xbd34ebd8	-0.04417023
122	0xbccdfc30	-0.025144666
123	0x3b4839c1	0.0030552002
124	0xbd414c32	-0.047191806
125	0xbbf9d98c	-0.0076248106
126	0x3c1dd512	0.009633319
127	0xbd1b7c49	-0.037960324

cnn.4.running_mean f4 [128]
0	0xbe13dfb7	-0.14440809
1	0x3e16687e	0.14688298
2	0xbd36f0df	-0.044663306
3	0xbc38020a	-0.011230955
4	0xbcd168bb	-0.025562635
5	0xbd150d8f	-0.036389884
6	0xbd8f6271	-0.07001198
7	0xbc4cd9c4	-0.012503091
8	0xbe9f34b3	-0.31094894
9	0xbe8d8869	-0.27643135
10	0xbe9a0d75	-0.30088392
11	0xbddc5e3b	-0.107601605
12	0xbce752ad	-0.028237665
13	0xbd28e85e	-0.041237228
14	0xbd19846b	-0.0374798
15	0xb8804ad4	-6.1174534e-05
16	0x3e650b90	0.22367692
17	0x3e49afed	0.19696017
18	0x3e109a55	0.14121373
19	0x3d58f042	0.052963503
20	0x3c3c39ab	0.0114883585
21	0xbe606e65	-0.21917112
22	0x3e770dd8	0.24126375
23	0x3df87aa2	0.12132765
24	0xbe1e0d3e	-0.15434739
25	0xbf960749	-1.1720973
26	0xbe261019	-0.16217078
27	0xbe5ed1c9	-0.21759714
28	0x3e9bf90e	0.3046345
29	0x3edefabf	0.4355068
30	0xbf99e8fc	-1.2024226
31	0xbe161507	-0.14656459
32	0xbe7fd13c	-0.2498216
33	0xbfaa5a24	-1.3308759
34	0xbece464c	-0.40288007
35	0x3e437b28	0.19089949
36	0xbe0436b4	-0.12911493
37	0x3db78b52	0.0896212
38	0xbe011abe	-0.12607858
39	0xbdde87ff	-0.10865783
40	0xbfa8aa97	-1.317706
41	0xbe92fe06	-0.2870943
42	0x3eaf690e	0.34259838
43	0xbf5d8934	-0.8653748
44	0xbfc4aa00	-1.536438
45	0xbeb52241	-0.35377696
46	0x3e1c0261	0.15235282
47	0xbf131523	-0.5745413
48	0xbe8b7a8a	-0.27241927
49	0x3f6e4304	0.9307101
50	0xbe91fc95	-0.28513017
51	0x3d0ec852	0.03485901
52	0xbe9e9925	-0.30976215
53	0x3eaa5262	0.33265978
54	0xbe56aded	-0.20964785
55	0xbee1fd56	-0.44138592
56	0xbfa32c81	-1.2747957
57	0xbe7b429e	-0.24537131
58	0xbfabfb13	-1.3435997
59	0x3c969ec0	0.018386245
60	0x3eb2faa2	0.34956843
61	0xbe98cb81	-0.2984276
62	0x3dd1cb4e	0.102438554
63	0xbec8be78	-0.39207816
64	0xbe8b2aa1	-0.2718096
65	0xbb07374c	-0.0020632325
66	0x3d871341	0.06595469
67	0x3eb9387f	0.36175916
68	0x3f2812ba	0.65653574
69	0xbfb375b5	-1.4020296
70	0x3dd64c1a	0.10463734
71	0xbe834b81	-0.25643542
72	0x3e05c208	0.13062298
73	0x3ec18a3b	0.37800774
74	0xbf1692f7	-0.58818
75	0xbe8262a5	-0.25465885
76	0xbf764311	-0.96196085
77	0xbe874167	-0.26417086
78	0x3da90fbd	0.08254955
79	0x3ec8e450	0.3923669
80	0xbec4e80c	-0.38458288
81	0xbef6dbd3	-0.48214588
82	0x3e01d382	0.1267834
83	0xbeb636fc	-0.35588825
84	0xbeee1c50	-0.46505976
85	0xbe89f4ee	-0.2694468
86	0x3e968c50	0.29403925
87	0x3e21b5f6	0.15792069
88	0x3d47225e	0.04861676
89	0xbe938e25	-0.28819385
90	0xbc8f5697	-0.017497344
91	0xbe7353e5	-0.23762472
92	0xbd75dc5c	-0.060024604
93	0xbe8cf74d	-0.27532426
94	0x3d9eba90	0.07750428
95	0x3e382908	0.17984402
96	0xbe8b9382	-0.27260977
97	0x3df64b14	0.12026039
98	0xbe3cd963	-0.18442301
99	0xbe2f0d49	-0.17094912
100	0xbed708cd	-0.41998902
101	0xbf978e7e	-1.184036
102	0xbf9a4880	-1.2053375
103	0x3e54dd21	0.20787479
104	0xbeb4813a	-0.35254842
105	0xbeb5043f	-0.35354802
106	0xbe80bb24	-0.25142777
107	0xbe57e6fd	-0.21084209
108	0xbeab4fbd	-0.33459273
109	0xbe5be35c	-0.2147345
110	0x3e8d0867	0.27545473
111	0xbf024dc8	-0.50899935
112	0x3e7ae1a0	0.24500132
113	0xbf04dc07	-0.51898235
114	0xbe82e918	-0.2556846
115	0x3f0d4f71	0.5519934
116	0x3e2ab00c	0.16668719
117	0x3eadabad	0.3392004
118	0x3e165a18	0.14682806
119	0x3dc5c84d	0.09657345
120	0xbe5c94af	-0.21541093
121	0xbeac6265	-0.3366882
122	0xbebb6460	-0.36600018
123	0xbf21d888	-0.63221025
124	0xbe0e7b00	-0.13914108
125	0x3e9bc094	0.30420363
126	0x3f06e1fc	0.52688575
127	0xbccae6cd	-0.024768258

cnn.4.running_var f4 [128]
0	0x3dda9af8	0.10674089
1	0x3e5cb719	0.21554221
2	0x3df13e88	0.11779505
3	0x3e1b0b3a	0.15141001
4	0x3db8beb2	0.09020747
5	0x3e2a950e	0.16658422
6	0x3e2f8b92	0.17143086
7	0x3e09ef93	0.13470297
8	0x3e244d34	0.16045076
9	0x3e5494e0	0.20759916
10	0x3e104fde	0.14092967
11	0x3dc9b7b8	0.09849495
12	0x3df429ed	0.11922059
13	0x3e48bc60	0.1960311
14	0x3df62160	0.120180845
15	0x3defeaef	0.11714732
16	0x3e0dd24e	0.13849756
17	0x3e3cea07	0.1844865
18	0x3e2ff98e	0.17185041
19	0x3dfee44f	0.1244589
20	0x3e190381	0.14942743
21	0x3e0ca309	0.13734068
22	0x3e5dcb27	0.21659528
23	0x3e788b25	0.2427183
24	0x3dd0ce00	0.101955414
25	0x3ebb152d	0.36539593
26	0x3e13e3f9	0.14442433
27	0x3d872043	0.0659795
28	0x3e814519	0.2524803
29	0x3e3f5dd9	0.18688144
30	0x3e7d3516	0.24727282
31	0x3e4ff1cd	0.20307083
32	0x3dc23efc	0.094846696
33	0x3e8f667d	0.2800788
34	0x3e9ea757	0.30987045
35	0x3e5f25e4	0.21791798
36	0x3e995cd0	0.29953623
37	0x3e4d18a8	0.20028937
38	0x3e77aba4	0.2418657
39	0x3e1e3be0	0.15452528
40	0x3e963fc1	0.29345515
41	0x3e5ad2cc	0.21369475
42	0x3e349c6a	0.17637792
43	0x3e31678f	0.1732466
44	0x3e9899b2	0.2980476
45	0x3e14436f	0.14478849
46	0x3e29dfd1	0.16589285
47	0x3dfe371c	0.12412855
48	0x3dff6923	0.12471225
49	0x3e73fc39	0.23826684
50	0x3e05ce5c	0.13067001
51	0x3dfa6922	0.12227084
52	0x3dd1a583	0.10236647
53	0x3e3936a0	0.18087244
54	0x3e0abe91	0.13549258
55	0x3e3193d8	0.17341554
56	0x3e9ab6e1	0.3021765
57	0x3e08da2c	0.13364476
58	0x3efecddb	0.4976643
59	0x3e2714ea	0.16316572
60	0x3e83a6d5	0.2571322
61	0x3e075f2f	0.13219903
62	0x3e111652	0.14168671
63	0x3ec8030d	0.39064828
64	0x3e309e40	0.17247868
65	0x3e1ceeb7	0.15325437
66	0x3dd7f03e	0.105438694
67	0x3e94b061	0.29040816
68	0x3ecf5bb5	0.40499654
69	0x3eb3fa2f	0.35151812
70	0x3e77e7d0	0.24209523
71	0x3dab78c3	0.08372643
72	0x3e206e29	0.15667023
73	0x3e323357	0.17402397
74	0x3efe9f71	0.4973102
75	0x3e0f95e9	0.1402203
76	0x3ebcb766	0.36858672
77	0x3e5887b3	0.21145515
78	0x3df84097	0.121216945
79	0x3e4257e0	0.18978834
80	0x3e6bbe63	0.23021846
81	0x3eaf2463	0.34207448
82	0x3e4c060b	0.1992418
83	0x3df8f2bb	0.12155672
84	0x3e270170	0.16309142
85	0x3e4865fd	0.19570155
86	0x3e5bf204	0.2147904
87	0x3e8e6df8	0.27818274
88	0x3eb8751a	0.3602684
89	0x3e067c6c	0.131334
90	0x3e0f3b87	0.13987552
91	0x3e8de945	0.27717033
92	0x3e3ccceb	0.18437545
93	0x3e16f28e	0.14740965
94	0x3dedf440	0.116188526
95	0x3e6d1c24	0.23155266
96	0x3e166fd3	0.14691095
97	0x3e308bd2	0.17240837
98	0x3e083f17	0.13305317
99	0x3de8a57a	0.11359687
100	0x3e48040f	0.19532798
101	0x3e8751ac	0.26429498
102	0x3e926390	0.28591585
103	0x3dd624b2	0.10456218
104	0x3dac21bd	0.084048726
105	0x3e0c92d1	0.13727881
106	0x3e156233	0.14588241
107	0x3e0d1de2	0.1378093
108	0x3e258648	0.16164505
109	0x3de04b54	0.10951868
110	0x3e84b53f	0.2591953
111	0x3ea91b4b	0.33028635
112	0x3e57cce3	0.21074252
113	0x3ea1de32	0.31614834
114	0x3dbf3cf7	0.093378
115	0x3e4ba606	0.19887552
116	0x3e31a51c	0.1734814
117	0x3e2d42f4	0.16920072
118	0x3e24596f	0.16049741
119	0x3e8141e5	0.25245586
120	0x3e267009	0.16253676
121	0x3dac712c	0.08420023
122	0x3e026cf1	0.1273687
123	0x3e8dcfcb	0.27697596
124	0x3dca2001	0.098693855
125	0x3e715148	0.23566163
126	0x3e8333db	0.256255
127	0x3ea4f25b	0.32216153

cnn.6.weight f4 [128, 128, 3, 3]
0	0x3d7c384f	0.061577138
1	0x3d3380b5	0.043823916
2	0x3db6c447	0.08924156
3	0x3d9f1df0	0.07769382
4	0x3d634472	0.055485196
5	0x3d805748	0.062666476
6	0x3d0a5294	0.03377016
7	0x3d91f48f	0.07126724
8	0x3dad93d4	0.084754616
9	0xbd0dd670	-0.03462833
10	0xbd02935e	-0.03187882
11	0xbc629fce	-0.013832046
12	0xbd50441c	-0.050846204
13	0xbc24681a	-0.010034585
14	0xbd5f61f6	-0.054536782
15	0xbcf71b73	-0.030164456
16	0xbd69445f	-0.05694997
17	0xbd24c324	-0.040225163
18	0x3cd37312	0.025811706
19	0x3d31bc4a	0.043392457
20	0x3ce4965b	0.027903726
21	0x3d0a9d77	0.033841576
22	0x3d57d157	0.052689876
23	0x3d25de3f	0.040495154
24	0x3d407d36	0.04699441
25	0x3d30d5a1	0.043172482
26	0x3bc10b3d	0.0058912323
27	0x3d214c09	0.039379153
28	0xba1aa7df	-0.00058996485
29	0x3cc919ea	0.02454849
30	0x3cba5ff3	0.02275083
31	0x3d349ba6	0.04409375
32	0x3d5fc2f7	0.054629292
33	0x3c9c10ea	0.019051034
34	0x3cb9d27d	0.022683376
35	0x3d20b012	0.039230414
36	0x3d146925	0.036233086
37	0x3bdd3313	0.0067504733
38	0x3cafbe78	0.021453127
39	0x3d174be2	0.036937602
40	0x3cea0e8e	0.028571393
41	0x3c83d7d0	0.016094118
42	0x3d32e090	0.04367119
43	0x3c6e5a46	0.01454789
44	0xbb984364	-0.0046467055
45	0x3d33a6d8	0.043860286
46	0x3d58d927	0.052941468
47	0x3c2a9888	0.010412343
48	0x3d04981b	0.03237162
49	0x3d5a3e18	0.053281873
50	0x3d3b2806	0.045692466
51	0x3c3d082b	0.011537592
52	0x3d71233e	0.0588715
53	0x3d0c4f1c	0.034255132
54	0xbbef9d2c	-0.0073124375
55	0xbd0b0886	-0.033943675
56	0xbda61fad	-0.081115104
57	0xbc4edc6c	-0.012625795
58	0xbd321927	-0.04348102
59	0xbd3b1c18	-0.04568109
60	0xbb83511b	-0.0040074713
61	0xbd82807e	-0.06372164
62	0xbd25e983	-0.040505897
63	0x3d0acd4c	0.033887193
64	0x3d38d659	0.045126293
65	0x3d5547ad	0.05207031
66	0x3da69a91	0.0813495
67	0x3d423986	0.04741814
68	0x3cc40482	0.02392793
69	0x3d62e728	0.05539623
70	0x3dadc749	0.08485276
71	0x3d1c5f9f	0.03817713
72	0x3db64871	0.08900536
73	0x3dd6c798	0.10487288
74	0x3de6c6c5	0.11268381
75	0x3d9a4264	0.07532194
76	0x3d83aaa9	0.06429035
77	0x3dda1e80	0.10650349
78	0x3dce40f9	0.10070986
79	0x3d9c3e97	0.076291256
80	0x3dcd70fa	0.10031314
81	0x3ae1a616	0.0017215635
82	0x3bc30fdc	0.0059528183
83	0x3d55bdb4	0.052182868
84	0x3c3e61c7	0.011619992
85	0x3cfb9e2f	0.030715076
86	0x3d715611	0.05891997
87	0x3c878111	0.016541036
88	0x3c90bc8d	0.017668033
89	0x3c7a49fa	0.015276426
90	0x3d0ebd9f	0.034848806
91	0x3cf088ba	0.029362071
92	0x3be43c30	0.0069651827
93	0x3b94628d	0.0045283497
94	0x3ad8f987	0.0016553857
95	0x3d2db8fb	0.04241274
96	0x3c26cb7b	0.010180349
97	0x3cb59f01	0.022170546
98	0x3d383663	0.044973742
99	0x3d9569fd	0.07295606
100	0x3db9505c	0.090485305
101	0x3d38571d	0.045004953
102	0x3d674a76	0.056467496
103	0x3d318a3a	0.043344714
104	0x3dc63fc0	0.09680128
105	0x3d4aef19	0.049544428
106	0x3da6fc61	0.08153606
107	0x3db453dd	0.08805058
108	0x3ce7496f	0.028233258
109	0x3ccb34d4	0.024805464
110	0x3d3fcd95	0.046826918
111	0x3d5df481	0.054188255
112	0x3ce13bb6	0.027494293
113	0x3caecc33	0.021337604
114	0x3cadb808	0.021205917
115	0x3d81e44b	0.063423716
116	0x3cfac5d5	0.030611912
117	0xbceb2ae4	-0.028706975
118	0xbd828f7c	-0.06375024
119	0xbddf731a	-0.10910626
120	0xbd2bad51	-0.041913334
121	0xbd1619dd	-0.03664576
122	0xbd9841fe	-0.07434462
123	0xbca8f2ae	-0.020623531
124	0xbcd8380e	-0.026393916
125	0xbda3912f	-0.07986676
126	0xbd50b5fe	-0.05095481
127	0xbda8a749	-0.08235032
128	0xbd0f73f8	-0.035022706
129	0xbd28b1f8	-0.04118535
130	0xbd6589c2	-0.05603958
131	0xbd2aaa6f	-0.041666444
132	0xbcfdf669	-0.031001287
133	0xbd7fa144	-0.062409654
134	0xbd4ee824	-0.050514355
135	0x3d96da15	0.073658146
136	0x3d7ec555	0.06219991
137	0x3d8ad8fb	0.06779667
138	0x3d930c0f	0.07180034
139	0x3d629b54	0.055323914
140	0x3d882cb8	0.066491544
141	0x3d93e7f2	0.072219744
142	0x3da3b6ae	0.07993828
143	0x3dafc165	0.08581809
144	0xbd2f8ed0	-0.042860806
145	0xbc494265	-0.012283896
146	0xbc61d2d2	-0.013783174
147	0xbd427582	-0.047475345
148	0xbd5fd30c	-0.05464463
149	0xbd3c7e04	-0.046018615
150	0xbb19f1dd	-0.002349011
151	0xbc991ad9	-0.01868956
152	0xbd13340a	-0.0359383
153	0xbd57d8cf	-0.052697
154	0xbcf56756	-0.029956501
155	0xbc8b5574	-0.01700852
156	0xbd6f5aee	-0.058436327
157	0xbcddaf1d	-0.02706104
158	0xbc0d44ea	-0.008622387
159	0xbd55903a	-0.0521395
160	0xbd46fef0	-0.04858297
161	0xbd279e06	-0.040922187
162	0x3d22dae0	0.039759517
163	0x3c9f4ddc	0.019446306
164	0x3d1f5eba	0.038908698
165	0x3c8d854f	0.01727548
166	0x3d958624	0.07300976
167	0x3cbe0bb4	0.02319894
168	0x3cc80047	0.024414195
169	0x3d84f28b	0.06491574
170	0x3d6b8f69	0.057509813
171	0x3dbc90c3	0.092072986
172	0x3de3548d	0.11100111
173	0x3dc4006c	0.09570393
174	0x3dbca360	0.09210849
175	0x3d6fe750	0.058570206
176	0x3dac8f59	0.08425779
177	0x3df1a6ea	0.117994145
178	0x3de4622d	0.11151538
179	0x3dce5a36	0.100758
180	0x3d3292d3	0.043597054
181	0x3d62cd80	0.05537176
182	0x3cb484db	0.022036007
183	0x3d63b642	0.055593736
184	0x3d0e7f1f	0.0347892
185	0x3d62ee5e	0.055403106
186	0x3d577cb6	0.052609168
187	0x3ca6fd29	0.020384388
188	0x3d3afa99	0.045649145
189	0x3d2702b6	0.04077407
190	0x3cc83e37	0.024443729
191	0x3d686aa7	0.056742337
192	0x3ce7a0bd	0.028274888
193	0x3cac7085	0.021049747
194	0x3d85d7bf	0.06535291
195	0x3c93c2c9	0.018037217
196	0x3d51d927	0.051232483
197	0x3d749045	0.0597079
198	0xbd36c497	-0.044621076
199	0xbd1fe5e1	-0.03903759
200	0xbd7bd832	-0.061485477
201	0xbd7438f6	-0.059624635
202	0xbcf4eae7	-0.029897166
203	0xbd5612d4	-0.05226405
204	0xbd68d38e	-0.05684238
205	0xbd0cc4d9	-0.034367416
206	0xbd18be81	-0.037291054
207	0xbd88e01c	-0.066833705
208	0xbda78f45	-0.08181623
209	0xbda015e4	-0.07816675
210	0xbd83dfaf	-0.06439149
211	0xbd76e39d	-0.060275663
212	0xbd064691	-0.03278214
213	0xbd2a1c85	-0.041531105
214	0xbda80905	-0.08204845
215	0xbd9fb77f	-0.07798671
216	0x3cc04f49	0.023475306
217	0xbc010d18	-0.007876657
218	0x3c2403a7	0.010010636
219	0x3c2a2686	0.010385161
220	0xbc05ed60	-0.00817427
221	0x3b8cb1da	0.0042936625
222	0x3cd9a15b	0.026566198
223	0x3ccce85c	0.025013141
224	0xbbaa0c46	-0.0051894514
225	0xbd7ff43b	-0.062488776
226	0xbd01b2d1	-0.031664673
227	0xbc259553	-0.010106402
228	0xbd173a24	-0.03692068
229	0xbd16a394	-0.036777094
230	0xbd5c73bb	-0.053821307
231	0xbd6c3691	-0.057669226
232	0xbcc44977	-0.023960812
233	0xbc818cd1	-0.015814217
234	0x3b093205	0.0020934355
235	0xbcb684e5	-0.022280166
236	0x3cf6c33d	0.030122394
237	0xbc562c45	-0.013072078
238	0x3c5e6559	0.013573968
239	0x3b9637a5	0.00458427
240	0xbc447734	-0.011991311
241	0x3c2c74f5	0.010525932
242	0xbad204f8	-0.0016023209
243	0xbc719554	-0.014745075
244	0xbb82c768	-0.0039910562
245	0x3cd4f00b	0.025993368
246	0xbc363d92	-0.011123078
247	0xbc025d23	-0.007956776
248	0xbc416b9b	-0.01180544
249	0x3cdc759b	0.026911547
250	0xbc953c98	-0.01821737
251	0x3caf9bcb	0.021436593
252	0xbd0bcbf7	-0.034130063
253	0x3b3346a6	0.0027355342
254	0xbcefdaa3	-0.029279059
255	0xbd0ea7cf	-0.034828003

cnn.6.bias f4 [128]
0	0x3cbea2c6	0.023270976
1	0xbb71190f	-0.0036788618
2	0x3b2ab54c	0.0026048003
3	0x3c887c90	0.016660959
4	0xbbdb7394	-0.0066971276
5	0x3cfaf1ce	0.03063288
6	0xbcb41afe	-0.021985527
7	0xbc727adf	-0.014799803
8	0x3bf9398d	0.0076057375
9	0xbc992e82	-0.018698934
10	0xbbb7f577	-0.0056139785
11	0xbcf84626	-0.030306887
12	0x3a6d3c8c	0.00090498547
13	0x3cfecb84	0.031102903
14	0xbc00f5f3	-0.007871139
15	0xbd8097c9	-0.06278951
16	0xbc92a9f0	-0.017903298
17	0xbc4560f6	-0.012047043
18	0xbc5bf9ef	-0.013426288
19	0x3ca4ab7e	0.020101305
20	0xbce426ea	-0.027850587
21	0x3d839699	0.064252086
22	0x3b0b0f46	0.002121882
23	0xbb0b92e4	-0.002129727
24	0x3c8d19db	0.017224243
25	0x3b0f5432	0.0021870253
26	0xbc91cf5c	-0.017799072
27	0x3c9ead86	0.019369852
28	0xbca33019	-0.019920396
29	0xbc94fbd3	-0.018186485
30	0x3c5b3e06	0.013381487
31	0x3cceedbe	0.025259849
32	0xbc198cef	-0.00937198
33	0x3b9ef94c	0.004851496
34	0x3d1ab395	0.03776892
35	0xbd200dd0	-0.039075673
36	0xbce55848	-0.027996197
37	0xbcb71440	-0.022348523
38	0x3c8b7d9a	0.017027665
39	0xbb724efe	-0.0036973353
40	0x3c7da0b2	0.015480207
41	0xbc5574a4	-0.013028298
42	0x3d333775	0.04375406
43	0xbbf4416e	-0.007454089
44	0x3d6633db	0.056201797
45	0xbc049678	-0.008092515
46	0xbd408576	-0.04700228
47	0x3c13b3d7	0.009015045
48	0x3ca3f29e	0.02001315
49	0xbc094eed	-0.008380634
50	0x3d28d5bb	0.041219454
51	0x3b938c98	0.004502844
52	0x3cef72a9	0.029229479
53	0x3cce56e7	0.025187923
54	0xbc442217	-0.011971018
55	0xbd28d47c	-0.041218266
56	0xbc12ffb3	-0.008972096
57	0x3cd5f8b4	0.026119567
58	0x3b2d88c0	0.0026479214
59	0xbc148ef8	-0.0090672895
60	0xbd625c11	-0.055263583
61	0x3b858bd4	0.0040755067
62	0xbcbb13e8	-0.02283664
63	0xbb8857e3	-0.0041608675
64	0xbc984285	-0.018586406
65	0x3c4a6213	0.012352484
66	0xbd49a396	-0.049228273
67	0x3ca915a5	0.020640204
68	0x3b70efe2	0.0036764075
69	0xbc9e7054	-0.019340672
70	0xbd7edde6	-0.062223338
71	0xbd1baaaa	-0.038004555
72	0x3d098fd0	0.033584416
73	0x3d243306	0.040087722
74	0xbc369c5d	-0.011145678
75	0xbd8a6b95	-0.06758801
76	0xbc89ebdd	-0.016836101
77	0xbc835277	-0.016030533
78	0x3cdd840d	0.027040506
79	0xbcb9d21a	-0.022683192
80	0xbcdc8492	-0.026918683
81	0x3cbe39c9	0.023220913
82	0xbc885732	-0.01664314
83	0x3cae4e1c	0.02127748
84	0xbbe795f1	-0.007067435
85	0xbb2f0a1e	-0.0026708911
86	0xbbd4f2d9	-0.0064986763
87	0xb7dd6473	-2.6392028e-05
88	0xbbe67fd1	-0.00703428
89	0xbd410f22	-0.047133572
90	0x3be705a7	0.0070502344
91	0x3d4187a3	0.047248494
92	0x3c9b554f	0.018961577
93	0xbd057606	-0.03258326
94	0xbcb6256a	-0.022234637
95	0x3af69de6	0.0018815368
96	0xbbdd7ea4	-0.0067594815
97	0x3d2ebaa7	0.042658474
98	0x3cf59e00	0.029982567
99	0xbc3477dd	-0.011014906
100	0x3c772ef6	0.01508688
101	0xbc863eb7	-0.016387327
102	0x3cb792b5	0.022408823
103	0x3cf5a994	0.029988088
104	0xbcea0a85	-0.02856947
105	0xba15c94b	-0.0005713894
106	0x3d549824	0.051902905
107	0x3ab6da47	0.001395055
108	0x3c9dd7d6	0.019267958
109	0x3c81bbbb	0.015836587
110	0x3baf4905	0.005349281
111	0x3d459c8e	0.048245005
112	0x3ca2db50	0.019879967
113	0xbd43a728	-0.047766834
114	0xbbe26049	-0.0069084507
115	0xba917715	-0.0011098111
116	0xbcd25b53	-0.025678312
117	0x3d4c9059	0.04994235
118	0xbcdd638c	-0.027025007
119	0xbc492b4c	-0.012278389
120	0xbd010fe0	-0.03150928
121	0x3b4318cb	0.0029769416
122	0xbce02462	-0.027361099
123	0xb92cac59	-0.00016467403
124	0x3d45f83b	0.048332434
125	0xbcbeb80f	-0.023281125
126	0xbd110e88	-0.03541425
127	0xbc43ae29	-0.0119433785
